example/.dart_tool/chrome-device/Default/optimization_guide_prediction_model_downloads/04e66b78-2ca9-4520-9288-bb2835237136/model.tflite (tflite, 407748 bytes, 166 tensors)

context_transformer_0/bottleneck_input/norm/add f4 [32]
00000000: 501c e93c 6fb8 a8bd 5eca 57bd 223d 14bd
00000010: c84b 04bd f4c7 10bc 5c0a c4bd 74bf 093d
00000020: 56f6 293c 90f6 febc 5026 82bd 870a e6bc
00000030: d813 0fbd 4ae8 69be fc90 063d 4232 78bd
00000040: 1e40 73bc beb3 a73d 41cf d8bc 46c6 3a3d
00000050: f27a 053e 64e9 adbc 1ab0 253d e235 eabc
00000060: 3960 643c 2627 97bc ec85 723b 888d 42bd
00000070: d2be 88bd d17b 893c 6677 4cbd ee84 81bc
0.028455883 -0.08238303 -0.052683227 -0.036191113 -0.032298833 -0.008836735 -0.095722884 0.03362985
0.0103736725 -0.03112343 -0.06354964 -0.028081192 -0.034931034 -0.22842517 0.03285311 -0.060594805
-0.01484683 0.0818858 -0.026466014 0.045599245 0.13035181 -0.021229453 0.040451147 -0.028590146
0.013938957 -0.018451285 0.0037006093 -0.047498256 -0.06677021 0.016782673 -0.049918555 -0.015810456

context_transformer_1/bottleneck_input/norm/add f4 [32]
00000000: 7969 b3bd 4cb8 bf3d 1368 273d 4e45 b63d
00000010: 204b 4f3d 2293 36bd 0cb1 893d 4a1d 27be
00000020: fa50 fdbd dd1e 7f3d 76c7 fcbc 140d 113e
00000030: b56e 8a3d 86cf 623d a836 50bb 6a5f e5bd
00000040: 4246 503d a8c4 4cbc dbfd b63c 53ce 083e
00000050: fdc9 bfbd e10f 353d 484e b83d fd17 07be
00000060: eec3 95bc 22d2 f33d d2af f2bd 5350 2fbd
00000070: 02cb 51be 2ba4 fe3c f6c0 60be 3466 dd3c
-0.08760352 0.09361324 0.040870737 0.088999376 0.050608754 -0.04457391 0.06723222 -0.16319767
-0.12368961 0.062285293 -0.03085683 0.14165145 0.06759397 0.05537369 -0.003177086 -0.111998394
0.050848253 -0.012498058 0.022337845 0.13359956 -0.09364698 0.044204596 0.08999306 -0.13192745
-0.018281903 0.11905314 -0.11849941 -0.042801213 -0.20487598 0.03108414 -0.21948609 0.027026273

mention_transformer_0/bottleneck_input/norm/add f4 [32]
00000000: 6a6c a53d 7a61 c23d 4e0b 0fbe 1aba a23d
00000010: 4286 1ebc 20c5 1bbe 25c2 33bd 43a7 5abc
00000020: dc94 aebc 3994 063e befd 55bd 22d3 ee3d
00000030: 080b a73d 8884 36bd c488 373e faab b03d
00000040: c623 313e 1c45 edbd f6cc ab3d 26dd 7cbd
00000050: 0015 55bd 5c6b 843d 54e4 09be 09d2 533d
00000060: c178 793d b717 633d 799f 173d b895 f8bd
00000070: 42a1 233e 006b 2d3d 29f6 c03d 2742 7dbd
0.08077319 0.094912484 -0.13969156 0.07945652 -0.009675564 -0.15211916 -0.043886323 -0.013345542
-0.021311216 0.1314248 -0.05224394 0.11661364 0.08156401 -0.044559985 0.17923266 0.08626552
0.17298803 -0.11585447 0.083887026 -0.06173434 -0.05202198 0.0646579 -0.13466007 0.051713977
0.060906176 0.055442538 0.03701732 -0.121379316 0.15979484 0.04233837 0.09421951 -0.061830666

mention_transformer_1/bottleneck_input/norm/add f4 [32]
00000000: d75a c53e 52d2 863e 13a7 a4bc 98e4 f93d
00000010: a77b c3be 144f 2cbe 72be 003e b5d7 24be
00000020: 59af 1cbe 2a44 12bd 929e 16be 8e22 8e3e
00000030: d61d 603e 6c28 613e 227d b2be cc48 e43e
00000040: 061b 153d 383c 81be d0a8 29be adb6 efbd
00000050: e80b 5f3d ae1f 85be e674 973e 2c2d c93c
00000060: 2dde e43c 0fcf 883e 86fc 253e 8873 993e
00000070: 9787 8abe 0bd9 c2be 829b 173d b226 6d3e
0.38545868 0.26332337 -0.020099198 0.12201804 -0.38180277 -0.16827041 0.12572649 -0.1609791
-0.15301265 -0.035709538 -0.14708927 0.27760738 0.21886382 0.21988076 -0.34861094 0.4458679
0.036402725 -0.25241256 -0.16568303 -0.117047645 0.054454714 -0.26000732 0.29581374 0.024557672
0.027937973 0.26720473 0.16209611 0.29970956 -0.27056572 -0.38056216 0.03701354 0.23159292

context_transformer_0/attention/value/add;context_transformer_0/attention/value/einsum/Einsum;context_transformer_0/attention/value/add/ReadVariableOp/resource f4 [32]
00000000: dc74 49bd 4938 a2bc 4daa 643c b6b1 393d
00000010: 6498 5dbd 6e95 273d e2dd 3abd 5401 3c3c
00000020: f620 333d 36cd b3bd af01 4ebd 1f1c 7fbc
00000030: a582 01bc 9956 47bc f9c0 03bd 8ba1 be3c
00000040: 6335 b0bb 2af8 bbbd 1fb9 bbbc 17e0 e33c
00000050: a456 55bd 85f3 1a3c 6a66 283d 207d e9bc
00000060: 99f8 673c 428a 73bd eafa a0bc 8f26 363b
00000070: 909b 7f3d fe9c 7dbd 4995 18bd 9e9a f23b
-0.04918371 -0.01980223 0.0139566185 0.045335494 -0.05410041 0.04091399 -0.04562176 0.011474926
0.043732606 -0.08779375 -0.050294574 -0.015570669 -0.007904683 -0.012166643 -0.032166455 0.023270389
-0.005377458 -0.09178193 -0.022915421 0.027816815 -0.05208458 0.009457474 0.041113295 -0.028502047
0.014158391 -0.059458025 -0.019650895 0.0027793979 0.062404215 -0.061917298 -0.037251744 0.0074036857

context_transformer_0/bottleneck_input/norm/mul f4 [32, 32]
00000000: ae35 bd3d f107 c33d 5d6d 06bf 80e5 52be
00000010: 593b a53d 24bf 293e 4a4b 89be ed6e be3e
00000020: 9115 6a3d 8500 dbbe e5f3 c8bd c2c7 fbbe
00000030: dda3 0c3f 1daa 0b3f a926 4f3d 3032 ecbd
00000040: c351 3f3b 2029 df3c 6794 d0bd 7416 0d3e
00000050: d506 dcbd 234b 10bf 2448 7c3e a815 863e
00000060: ada6 8f3e dbe1 11bf b0c3 f4be 9db6 a1be
00000070: abcf 67be 927f af3e 2167 483d 16e0 aabe
00000080: 3f53 f13d d97a f0bd 8d6f 87bd dedf db3c
00000090: a952 05be d728 4abe dde5 953d fa75 ffbd
000000a0: 263a ccbc 6687 cb3c 54df 2e3e 6b47 07be
000000b0: 4beb 663d 2c54 153b 0b7f 84bd c318 1bbe
000000c0: 195b 01bc 1aa1 0abd 6edd 043d 8ee5 3cbb
000000d0: 444d 99bd f5ea bcbe b7b0 ecbd 7d92 113d
000000e0: 89d3 f93d b2e3 a33d ae1d 493d fea3 f23c
000000f0: 7493 003e 1741 ddbd 6f30 7c3e 5f6c 52be
00000100: 053c 2d3d 135d dd3c 579b cebe b4d6 0d3d
00000110: dec8 adbd cbbd 953e 1aba ab3d f221 3fbd
00000120: f297 be3e cad9 a03e 05e9 0e3c c9a4 2a3e
00000130: e0f4 a9be cd70 36bc 9ea4 19bd 274c 57be
00000140: 5e24 e4be 63ae 933e 9ebc a6bd 7290 02be
00000150: 7a2d b5be 6f10 ae3d 24bc 0f3e b58d 293e
00000160: b0e5 a5bd 8da3 d93d e6cd b03c 60fd 893e
00000170: 4706 f63d d4df 95bc d48d 8c3e f07b 943c
00000180: 524e cf3d 1ef6 9c3d d7ae cd3e 5685 bd3d
00000190: 8a75 3ebd a5df 52be 40e6 b63d 1718 6b3d
000001a0: 6cac f8ba 5a18 0c3c 7b22 f03c 609b ecbd
000001b0: 5f94 57bc 6643 29be c401 6c3e 3242 a8be
000001c0: b046 81be 60d1 01bc cb33 b8bc 103e 6b3d
000001d0: 58bb d1be e3b7 7bbd 1eae d53b d5c2 9d3e
000001e0: ed79 debd 9849 69be b396 32bc fb9b 843e
000001f0: 4ec4 5dbe 90ac c8be a497 243e e94e 0dbe
00000200: 65f6 3d3d f427 723b 5364 dc3c d47a aabd
00000210: 1774 033e 8109 adbe f9b4 2dbd 3e55 813c
00000220: 8486 14be 0a60 b93b 3ee8 34bd e895 39be
00000230: bcdd 763d 5fa2 b1be 6d6f 22be 0420 45be
00000240: d6bd a5be e1e4 a13e bdfb f7bd 65b6 ac3d
00000250: 4dd1 7bbe d641 0b3e 80c0 33be cb03 c1bd
00000260: 0546 783e b270 6ebe e150 34bd 1fd4 873d
00000270: f92e 30be 923d 2b3e 2736 583e dd4e 8cbd
00000280: f426 b6be 1229 273e e1e2 103f aee8 1d3b
00000290: 16af c33e c475 67be c3a2 3f3e 4702 0ebe
000002a0: 45b8 55be 9791 ccbe ce00 30be bedd 93be
000002b0: 38b0 79be 902f 503e b6e2 66be d290 97bd
000002c0: bcf4 493e c29f ccbd 77bb 153e 94f7 303e
000002d0: a1c2 c13e e853 f13e d9b1 39be 0c30 c63d
000002e0: 0da4 2a3d df51 393e 645e 89bc d4f6 59be
000002f0: f7b9 603e faee cc3e c142 163e c539 d9be
00000300: 5ac5 c9bd 1ed9 7e3b 946d 90be 3161 6bbe
00000310: 813f f83c c216 d5bc 5244 84be 2e93 26bd
00000320: 9972 bc3d 8bb7 bcbb cead dc3d 6dee 58bc
00000330: 19bc e23d a3f8 35be e177 24be 950e 14be
00000340: 1cb7 ffbd 1728 33be 2bae 763e 8212 aabd
00000350: 8832 31bd 129d 513d a415 1d3e c550 993e
00000360: d59e 54be 9600 963d ebbe 4dbe af9f 643e
00000370: 2f94 efbc 8c68 34bd cc45 2cbc 5900 21ba
00000380: 6120 0cbe 8d67 97be 1840 103f c614 c5bc
00000390: 6a45 30be 8645 acbb 75d6 ebbd 791d ea3d
000003a0: 266f 9d3d 5d8e 84bd 001d 14bd e8f7 97bd
000003b0: 0615 dcbe 67d3 e8bd 0ef7 193c 310d 543e
000003c0: b7b8 36be 2639 68be 407a 183e 4137 84bd
000003d0: f683 24bd a3aa ec3d 17ef 303e 37c3 7d3e
000003e0: 104d bcbe f234 933d 6018 ea3a ed5c 643c
000003f0: d9f9 f53c f650 95be af81 80bd 59f2 573e
0.09238754 0.09522999 -0.52510625 -0.2059536 0.0806796 0.1657682 -0.26815253 0.37194005
0.057149474 -0.42773834 -0.09812144 -0.4917584 0.54937536 0.5455645 0.05057398 -0.1153301
0.002919302 0.02724129 -0.101845555 0.13778096 -0.107434906 -0.5636465 0.24636894 0.26188397
0.2805685 -0.56985253 -0.47805548 -0.31584635 -0.22637813 0.34277016 0.048926476 -0.3337409
0.11783456 -0.11742181 -0.066130735 0.026840147 -0.13019814 -0.19742142 0.073192336 -0.12473674
-0.024930071 0.024844836 0.1707738 -0.13210838 0.056376737 0.0022785766 -0.06469544 -0.15146165
-0.0078952545 -0.033845045 0.032437734 -0.0028823349 -0.074854404 -0.36898008 -0.11557143 0.035540093
0.1219855 0.08002414 0.04910057 0.029619213 0.12556249 -0.108034305 0.24627851 -0.20549153
0.042293567 0.02702192 -0.4035289 0.034628585 -0.08485578 0.29246363 0.083851054 -0.046663232
0.372253 0.3141616 0.008722548 0.16664423 -0.33194637 -0.011135292 -0.037510507 -0.21025144
-0.44558996 0.28843984 -0.081414446 -0.12750414 -0.35386258 0.08499228 0.14036614 0.16557963
-0.0810045 0.10626898 0.021582555 0.26951122 0.12012916 -0.018295206 0.27451956 0.018125504
0.1012236 0.07664131 0.40172455 0.092539474 -0.046498813 -0.20593126 0.089306355 0.05739602
-0.0018972284 0.008550728 0.029313317 -0.11553073 -0.013157933 -0.16529617 0.23047549 -0.32863003
-0.25249243 -0.007923454 -0.022485634 0.057432234 -0.40963244 -0.061454665 0.0065210005 0.30812708
-0.10863099 -0.2278198 -0.010900187 0.25900254 -0.21656916 -0.39194155 0.16073471 -0.13799633
0.04637756 0.0036950083 0.026903307 -0.08324209 0.12837254 -0.33796313 -0.042408917 0.015787717
-0.14504439 0.0056572007 -0.044166796 -0.18123591 0.060270056 -0.34694192 -0.15862818 -0.19250494
-0.32371396 0.31619933 -0.12108562 0.084332265 -0.2459156 0.13599333 -0.17553902 -0.094245516
0.2424546 -0.23285177 -0.044022445 0.06632256 -0.17205419 0.16722706 0.21114407 -0.068509795
-0.35576594 0.16324261 0.5659619 0.0024094987 0.38219517 -0.22603518 0.18714432 -0.13868056
-0.20871074 -0.39954826 -0.17187807 -0.28880113 -0.24383628 0.20330644 -0.22547421 -0.07400669
0.19722265 -0.09991409 0.14622293 0.17281944 0.37843803 0.47134328 -0.1813425 0.09677133
0.041660357 0.18097638 -0.016768642 -0.21285564 0.2194594 0.40026075 0.14673902 -0.42426887
-0.09852095 0.0038886736 -0.282086 -0.22986294 0.030303719 -0.026011828 -0.25833374 -0.040667705
0.09201545 -0.0057591847 0.10775338 -0.013240439 0.11071033 -0.17770629 -0.16061355 -0.14458688
-0.12486097 -0.17495762 0.24089877 -0.08304311 -0.04326108 0.051175185 0.15340286 0.29944435
-0.20763715 0.073243305 -0.2009236 0.2232654 -0.029245464 -0.044045016 -0.010514688 -0.00061417144
-0.13684227 -0.2957119 0.563478 -0.024057757 -0.1721398 -0.0052573113 -0.11515514 0.11431403
0.076872155 -0.06472466 -0.03616047 -0.07420331 -0.4298479 -0.11368447 0.009397281 0.20708157
-0.178439 -0.2267805 0.14890385 -0.06455851 -0.04016491 0.11555984 0.17278706 0.247815
-0.36777544 0.07187833 0.0017860048 0.013938171 0.030026363 -0.2916333 -0.06274735 0.21088542

context_transformer_0/kq_shared_bottleneck/norm/mul;context_transformer_0/kq_shared_bottleneck/norm/add;context_transformer_0/attention/key/einsum/Einsum;context_transformer_0/attention/key/add;context_transformer_0/attention/value/einsum/Einsum;context_transformer_0/attention/key/add/ReadVariableOp/resource f4 [32]
00000000: 65cd c13e fac6 d0bd 0aec 8f3e 452f eb3d
00000010: 5c35 d9bc 2471 d4bd 5c82 d6bd efca ad3e
00000020: 7c15 043e 3b42 ee3c e94e 773d d4fc 3fbc
00000030: 29b8 963d 64d2 abbc c6cc 5dbc 8205 68bd
00000040: e871 a5be 4565 8a3e a379 83be cf12 a9bd
00000050: 1b71 0f3e 86a3 0abe 11cf 603e eb87 42be
00000060: 5804 1c3e 0362 383e d247 b6bd 5a3a 4dbe
00000070: 2399 003e 31c9 1fbe 4401 a63d dbe7 423d
0.37852016 -0.10194202 0.2810977 0.11483625 -0.026514702 -0.10373142 -0.10474083 0.3394389
0.1289882 0.029084316 0.06037799 -0.011717994 0.073593445 -0.020974346 -0.013537591 -0.056645878
-0.32313466 0.27030388 -0.2567874 -0.082555406 0.1400799 -0.13538942 0.2195399 -0.18997161
0.15236032 0.18006139 -0.089004174 -0.2004179 0.12558417 -0.15604092 0.0810571 0.047584396

context_transformer_0/kq_shared_bottleneck/norm/mul;context_transformer_0/kq_shared_bottleneck/norm/add;context_transformer_0/attention/key/einsum/Einsum;context_transformer_0/attention/key/add;context_transformer_0/attention/value/einsum/Einsum;context_transformer_0/attention/key/add/ReadVariableOp/resource1 f4 [32, 32]
00000000: 5793 b2be 498f 57be 2560 813e a7a7 603d
00000010: 51ab 853e 6df5 583d 099b 083d 2924 bf3e
00000020: a140 2b3e 34fc c2be fce3 b8be bf98 7a3e
00000030: 31c8 87be cc05 d7bd 6422 6e3e d9f6 7f3e
00000040: cab5 83bd 13f0 11be b714 43be 9b7c 91be
00000050: e964 12be 74c0 d1bd a8c5 a1bc 6642 cfbd
00000060: 6fa8 88be 1e5a b0be d94f 04bf 8c53 6d3d
00000070: a33b 03bc 7d0c f33d 3e7a 88be 600a 5e3d
00000080: 3a07 9d3e 0fa3 043e f594 56be a9b9 73bd
00000090: a1b3 b4bd 55b5 653d 2665 f0be 24fa 5fbe
000000a0: 34b3 11be 0f20 8d3e b49f 8f3e 2876 80be
000000b0: 1752 d93e c7da 91bb fcc8 1f3d a571 6fbe
000000c0: a04f b6be c3a9 afbd 77da dd3d 42a5 e63d
000000d0: 52cc 853d f666 f03d 2b6b 05bf 8530 173e
000000e0: 6f0f 903d ec81 c83e 47eb c33e 27bc 8abd
000000f0: 76b4 51bd e0c6 013e abf5 f43d 7daf 0fbf
00000100: c827 02bc 51cc 71be 87a3 963b 45d0 3bbe
00000110: 00cb 15be a51d 86bc b750 4dbf f4d8 8a3e
00000120: 26a1 56bd 7bb5 59be ff49 86bd d762 10be
00000130: fba2 e5be b29c 8ebb feda eabb 6c3c 003e
00000140: b099 9dbe 0079 52be bec5 5abc 9c03 4e3e
00000150: ebbf ea3c 6d14 a9bd dd50 88be 0f43 af3d
00000160: 595f 413d 93d4 043e 644c 4cbf 64cb e33c
00000170: 3261 b0bd e934 9dbd 1b26 ac3d 8640 2ebf
00000180: 8672 a8bc 4e4a d7bd dd4b 053d 2c45 42be
00000190: 5ef2 fbbe fba8 0fbe 5eaf 37bf 2eae 8d3e
000001a0: 6f61 ab3d 7c09 4abe 9411 5fbd ed08 d7bd
000001b0: 342a 88be d77a ee3d 42a9 3dbe d634 88bc
000001c0: a5b4 aebe bbdb a2bd 563b 2b3d c7a7 c73e
000001d0: ab38 733e 1bf2 633d 70ac c9bd cd5d ad3d
000001e0: 1538 a63e 68c8 953d 5e86 3bbf 2d85 9a3e
000001f0: 3099 78be 3bf9 e4be d952 153d f4dd ddbe
00000200: 225e 123d 6119 2a3e da53 4cbd 16c4 0cbd
00000210: 46ea a53d cd2a 003e 8336 d8bd 2cb3 42be
00000220: 28f9 cabb d430 fcbc d9f9 22bd bdb2 80ba
00000230: b115 403f 539e 283d 9f90 743e 9c6c 60be
00000240: faf2 0abf ee3d 11be 655c 49bb e6a3 b6be
00000250: 0b46 163e 1a00 d33e c123 01bf de61 ee3c
00000260: 99b8 47be b049 d1bc 9c9d 2f3f 5d72 2ebe
00000270: 2ec9 e5bd a087 a23e 3cd3 5ebe 4a11 78be
00000280: 4e99 13be 2a47 37be 723f 143e ba8a 92be
00000290: 269f e7be 9820 05bd bab9 d2bc cbe7 353e
000002a0: 519e 333e 4883 9cbe 451c 34be 5d3b 1bbc
000002b0: 8216 9cbe 408c c43e dde3 cfbe 41bd 913d
000002c0: a3fc d33d a51e 5b3d bd59 613b 6309 e33e
000002d0: b3ec b33e f400 043e d5a9 723e 173e 08be
000002e0: 1561 f93e dea6 7fbe 048f d6be 9169 8f3e
000002f0: 77db 07be 9770 14bf afee 6c3d 5150 a53d
00000300: 41ca 4a3e 730d 41bc 20c1 3e3d bc7a 51be
00000310: 68a6 ec3e bb88 be3e 9abb 003e 6bd3 93be
00000320: e065 3cbe b763 cd3d 78d9 91bd 0293 d1bc
00000330: 4f64 7e3e 6757 12bd 3ba0 adbd 0ea4 c5bd
00000340: 04d2 09bd 12e1 e2bd 557c 5f3d d6ce babe
00000350: 0fb8 223d f613 2b3e 1d28 9cbe 83b8 49be
00000360: bff6 70be ef3b a33d fd4d 2b3f 7b65 bbbe
00000370: 49fc ae3e 0fd3 173f a533 df3d efa1 cebe
00000380: d858 cebe f760 0ebe 55c5 723e a7a0 7d3c
00000390: d078 4c3e cfae 26bc ccf2 0f3d d969 af3e
000003a0: e2e5 3f3e f945 d8be 934b a9be 1844 923e
000003b0: 709d 3cbe 90ff c4bd 2b1c 6e3e a5ef 643e
000003c0: 7f6d a0bd 25ff 1abe 76b0 04be bd0b 76be
000003d0: 727f 14be 7ab8 0ebd 8855 633d ed08 f5bd
000003e0: 6958 3ebe 1c49 cebe 86d5 ecbe dc7d 013e
000003f0: 89c6 89bd 3ec4 033e 1b84 adbe bd46 213e
-0.34878036 -0.21050753 0.25268665 0.054847386 0.26107267 0.05296843 0.033350978 0.37332276
0.16723873 -0.3808304 -0.36111438 0.2447233 -0.2651992 -0.104991525 0.23255306 0.24996509
-0.06431158 -0.14251737 -0.19050871 -0.2841538 -0.14296307 -0.10241786 -0.01974757 -0.10120086
-0.26691005 -0.34443754 -0.5168434 0.057941005 -0.008009824 0.11867616 -0.26655763 0.054209113
0.30669576 0.12952827 -0.2095526 -0.05950323 -0.08823324 0.056081135 -0.4695217 -0.21872765
-0.14228517 0.2756352 0.2805153 -0.25090146 0.42445442 -0.004451129 0.039010033 -0.23383196
-0.35607624 -0.08577301 0.108326845 0.11261989 0.06533112 0.11738388 -0.5211665 0.14764602
0.07034194 0.39161623 0.3826544 -0.067741685 -0.05119749 0.12673521 0.1196092 -0.5612715
-0.007944055 -0.23613097 0.0045971307 -0.18341167 -0.1462822 -0.016371557 -0.80201286 0.27118647
-0.052399777 -0.21260636 -0.065570824 -0.14100204 -0.44850907 -0.0043521756 -0.007167219 0.12523049
-0.30781317 -0.2055397 -0.0133528095 0.20118564 0.028655967 -0.08255849 -0.26624194 0.08557712
0.04721007 0.12971716 -0.7980406 0.027806945 -0.086122885 -0.076761074 0.084057055 -0.68067205
-0.020562422 -0.10512219 0.032543052 -0.189717 -0.4920835 -0.14029305 -0.71751964 0.2767195
0.08368193 -0.1973018 -0.054460123 -0.10499749 -0.26594698 0.116445236 -0.18521598 -0.016626757
-0.34122196 -0.079520665 0.041804634 0.3899519 0.23752086 0.05565081 -0.09847343 0.08465157
0.32464662 0.07313615 -0.73251903 0.3017973 -0.24277186 -0.44721398 0.036455963 -0.433334
0.035734303 0.16611244 -0.049884655 -0.03436669 0.08101325 0.12516327 -0.10557272 -0.19013661
-0.0061942525 -0.030785002 -0.039789055 -0.0009818893 0.750331 0.041166615 0.23883294 -0.21916431
-0.54277 -0.1418378 -0.0030725237 -0.3567192 0.14675157 0.41211015 -0.5044518 0.029099401
-0.19504012 -0.025547832 0.6859987 -0.17035814 -0.112200126 0.317441 -0.21760267 -0.24225345
-0.1441395 -0.1789824 0.14477327 -0.28621465 -0.45238608 -0.032501787 -0.025723327 0.17764203
0.17540862 -0.3056891 -0.17588909 -0.0094746025 -0.30485922 0.38388252 -0.40603533 0.071161754
0.10350921 0.05349602 0.0034385764 0.443431 0.35141525 0.12890989 0.23697598 -0.13304935
0.4870688 -0.24965999 -0.41905987 0.28010228 -0.13267313 -0.579843 0.057844814 0.0807196
0.19803716 -0.011782992 0.046570897 -0.20456976 0.46220708 0.37213692 0.12571564 -0.28872237
-0.18398237 0.10028785 -0.07121557 -0.025582794 0.24842952 -0.035727885 -0.08477827 -0.096504316
-0.033647552 -0.11078085 0.05456193 -0.36485928 0.039726313 0.16706833 -0.30499354 -0.19699292
-0.23531626 0.07970416 0.66915876 -0.3660086 0.34176853 0.59306425 0.10898522 -0.4035792
-0.40302157 -0.13904177 0.23708089 0.015480197 0.19967961 -0.010173514 0.03514366 0.34260443
0.18740037 -0.42240885 -0.3306547 0.28567576 -0.18419433 -0.09619057 0.23252933 0.22357042
-0.07833385 -0.15136392 -0.1295794 -0.24027915 -0.14501742 -0.0348439 0.05550149 -0.11964593
-0.18588413 -0.40290153 -0.46256655 0.12645668 -0.06727321 0.12867829 -0.3388985 0.15749641

context_transformer_0/kq_shared_bottleneck/norm/mul;context_transformer_0/kq_shared_bottleneck/norm/add;context_transformer_0/attention/query/einsum/Einsum;context_transformer_0/attention/query/add;context_transformer_0/attention/value/einsum/Einsum;context_transformer_0/attention/query/add/ReadVariableOp/resource;context_transformer_0/attention/Mul;context_transformer_0/attention/Mul/y f4 [32]
00000000: 2ea3 5bbe 35d5 933d f8df f8bc 113d 923c
00000010: f3e1 e2bd 9068 2e3b 1242 c6bd 55a1 57be
00000020: c2cb a7bc 1ce0 013d 22f3 193e b9e8 75bd
00000030: 873d 003e b064 993d eba0 8fbc 709a 773d
00000040: a4ee 863e 3fde 74be 31de 853e 0db4 263e
00000050: 9b08 e5bd 7064 6d3e f518 7abe b194 7f3e
00000060: 20c8 5b3e 15fa 8a3d 9a4c 4dbe 9514 04be
00000070: 1d1e 3a3e 0fd7 70be 05c5 b13e 57fa 13bb
-0.21448967 0.072184004 -0.030380234 0.017851384 -0.11078253 0.0026612617 -0.09680571 -0.21057637
-0.020482901 0.031707868 0.15034154 -0.060036395 0.12523471 0.07489908 -0.017532786 0.060450017
0.26353943 -0.23912905 0.2614608 0.16279621 -0.11183282 0.23182845 -0.24423583 0.24959065
0.2146306 0.067859806 -0.20048752 -0.12898476 0.1817555 -0.23519538 0.34720626 -0.0022579634

context_transformer_0/kq_shared_bottleneck/norm/mul;context_transformer_0/kq_shared_bottleneck/norm/add;context_transformer_0/attention/query/einsum/Einsum;context_transformer_0/attention/query/add;context_transformer_0/attention/value/einsum/Einsum;context_transformer_0/attention/query/add/ReadVariableOp/resource;context_transformer_0/attention/Mul;context_transformer_0/attention/Mul/y1 f4 [32, 32]
00000000: ad26 adbd b295 02bd f5d7 8cbc 5f39 8a3d
00000010: 6380 39be 9bc5 77bd b888 133e e16d cbbc
00000020: b455 c53d 0436 7cbc 1289 46bc e219 be3c
00000030: 9396 04bd 1192 7fbd 4d83 b5bd 002b 86b9
00000040: 356e 853d 7f9d 4e3d 96cb a03c fd55 23bd
00000050: 8ea6 603e bd7c d9bd 5bfa 823c ad4b e6bc
00000060: 8a64 ae3d a62c 8ebd 1d23 973e a6fc 70bd
00000070: 13f3 633d 67d9 95bd 4276 ba3b df0c 2c3e
00000080: 6f2b e63d 62f1 853d 35b4 3ebd 28d1 61bd
00000090: 162b dd3d 2532 903d c393 2dbe da37 56bd
000000a0: 52d3 c3bd 50f5 a03d 8938 b33d e36e a3bd
000000b0: ae71 463e 003f f63d 784a 803d 83c1 40bd
000000c0: 688f b9bd 0097 043d c7b1 83bc cc90 0d3e
000000d0: 3f81 e6bd 2b89 f83d c33c 1abe 6a08 df3d
000000e0: d6de c53b 0b6e a13d 7886 11be ca70 0cbc
000000f0: 554a 12bd a817 2f3c 799c e23c 7372 3ebe
00000100: 19c1 d13d 60e8 3ebc be89 f1bc 2561 2fbd
00000110: c0b6 82be 86ac 873d fa58 043e 83ab c23c
00000120: 1640 37bd d364 95bc 81ee c3bb c2bf d8bd
00000130: 870c 733c 33a8 b03c 6467 fcbd f573 4fbd
00000140: 85bd 24be 172e b93d e494 643c f5d7 87bd
00000150: 9666 ac3e 3ac2 343d 0246 24be 0587 8e3d
00000160: 57d8 803d 2b71 ba3d 128a b63d 1abe 563d
00000170: e87f 143c ee5e adbd d17b 953d 4d35 27bd
00000180: 6639 913d 6cf8 483d 88d9 3abb a11d c1bc
00000190: 4c4b 64be 7ae2 283c 360a 573d 9c2d ac3d
000001a0: efa5 11bd 7818 e5bb e3d5 bbbc ae62 8fbd
000001b0: 455f 25bd 2182 9bbd dd49 9abd 6f6d ffbd
000001c0: 8713 8bbe efb3 853d 9066 123d b474 2cbe
000001d0: 23a8 823e b187 5d3d c31e 15be c076 e73c
000001e0: 2d95 6a3d adff e23c adcc aebd 2023 223e
000001f0: e3df 90bc 5043 9cbd b26d 7e3d 26c8 afbc
00000200: 12d9 80bc 3af1 903d e933 3fbd 2893 433d
00000210: 394a 2c3e e0e1 683c d04c 9ebe 79c7 d8bd
00000220: f2a5 be3d 7b0f 933d 1339 b73d f2e6 4dbd
00000230: 2b8a 513e 91e2 443d 1ffb dd3d 813a 82bc
00000240: 3f24 6dbd 51b1 a73c 2697 473c 0e5e 7c3e
00000250: ee94 55be 364d b33c 0a74 8fbe d9fc 0a3d
00000260: f8b1 b03d 7d9d cebd 9f4c e73d 7200 59bc
00000270: 9bb0 b43c fb0e 09bd 4b77 bdbb cb7f 21be
00000280: 979e 0c3a 7932 d83c 7022 703d 31a8 a4bb
00000290: 6b49 c8bd d03e 8d3c 74fb 9d3d 1a92 ca3d
000002a0: 397c 88ba 75cb e6bc 2238 e9bd c564 363c
000002b0: d62f 79be 2683 24be 1e58 02be e442 e4bd
000002c0: 11cf 60be 83b3 023c 68fb 633d 2112 84be
000002d0: d9a4 0d3e 9cbf 033c 0ad1 8ebd aa1b f1bd
000002e0: f4a2 973c a6f5 53bd 614b 28be d522 353e
000002f0: 5c6c 633d f108 a2bc 88ba 933d c3a0 193d
00000300: e761 4f3d ec07 6cbd e8d0 00bb bc2e c6bd
00000310: 9b43 443e b80e 1c3e 4a50 00be 44c1 f8bd
00000320: acaf 1f3b c616 5c3d c867 503c 2d99 06bd
00000330: 7b2f b23d 02dd 2d3e 52e6 85bd d23a be3d
00000340: 4356 6c3e 8aaa ea3b 9324 55bc 5ecb 863e
00000350: ad8d 1bbe d96e e83c 8078 a6bd e9ef 3cbd
00000360: 0943 973d 61a3 04bc 3ca8 b23d 1dda 06be
00000370: 907e b33d a118 823d ec20 8e3d 37f0 51be
00000380: 20d8 bbbd 9c3a e0bb ec57 19bc 09ea a33d
00000390: 3d86 2dbe 48ea 9bbd b110 eb3d 4fd1 a5bc
000003a0: 33e8 eb3d 2bb9 e4bc 316d 693c 4f4c ee3c
000003b0: 8b72 39bd 8919 aebd a190 7dbd 8c9d dabc
000003c0: 0286 6d3d ecf2 173d adf7 303d d82b 71bd
000003d0: ad85 3e3e 7e22 c3bd 2d84 31bc 5e76 49bd
000003e0: 62ba 9e3d 6b92 aabd 08df 9a3e d01b 97bc
000003f0: 4b52 573d 7b6e 76bd 09c7 57bc c077 353e
-0.084546424 -0.03188104 -0.01719282 0.06749224 -0.18115382 -0.060491186 0.14407623 -0.024832668
0.09635487 -0.015393738 -0.012117641 0.023205701 -0.03237016 -0.06239516 -0.08862934 -0.0002559051
0.06515161 0.05044317 0.019628327 -0.039876927 0.21938536 -0.10619495 0.01598852 -0.028112257
0.0851527 -0.0694211 0.29518977 -0.058834694 0.055651736 -0.07316857 0.005690367 0.16801785
0.11238753 0.06540181 -0.046558578 -0.055131108 0.107992336 0.07040814 -0.16950898 -0.052299358
-0.095617905 0.0785929 0.087510176 -0.07980134 0.19379303 0.12023735 0.06264204 -0.047059547
-0.09060556 0.032370567 -0.016075982 0.13824767 -0.112551205 0.12135538 -0.15062241 0.10890277
0.006038527 0.07882317 -0.14211452 -0.008571813 -0.03571542 0.010686792 0.027662503 -0.18598346
0.102419086 -0.011652082 -0.029484626 -0.042817254 -0.25530052 0.06624703 0.12924567 0.023763424
-0.04473885 -0.018236553 -0.0059793596 -0.1058345 0.01483453 0.021564579 -0.12324408 -0.050647695
-0.16087921 0.09041994 0.013951514 -0.066329874 0.33672017 0.04413054 -0.16042331 0.06959347
0.062912636 0.09103616 0.089130536 0.05242739 0.009063698 -0.08465372 0.07299007 -0.040822316
0.07091026 0.04906504 -0.0028511006 -0.023573698 -0.22294348 0.0103079025 0.052499972 0.08407137
-0.035558637 -0.0069914423 -0.022929138 -0.070012435 -0.04037406 -0.075931795 -0.075336196 -0.12472045
-0.27163336 0.0652846 0.035742342 -0.16841394 0.25518903 0.054084484 -0.14562516 0.028254867
0.05727117 0.027709806 -0.085351326 0.15833712 -0.017684883 -0.07630026 0.062116332 -0.021457743
-0.015728507 0.0707726 -0.046680365 0.04774776 0.16825189 0.014214009 -0.30917978 -0.105849214
0.09308995 0.07180687 0.08946433 -0.050269075 0.20462863 0.048067633 0.10838913 -0.015897037
-0.057895895 0.020470293 0.012182033 0.24645254 -0.20857593 0.021887403 -0.28018218 0.03393254
0.08627695 -0.10088632 0.11293911 -0.013244735 0.022056868 -0.033461552 -0.005782043 -0.15771405
0.0005364208 0.026391255 0.058626592 -0.005024933 -0.09779628 0.017241865 0.077139765 0.09891148
-0.0010412998 -0.028173188 -0.113876596 0.011132424 -0.24334654 -0.16065654 -0.12728927 -0.11145571
-0.2195399 0.007977369 0.05565968 -0.2579508 0.13832416 0.008041289 -0.06973465 -0.117728546
0.01851032 -0.05174794 -0.16435005 0.17689069 0.05552326 -0.019779654 0.072133124 0.03750683
0.050630476 -0.057624742 -0.0019655768 -0.096768826 0.19166414 0.1523999 -0.12530628 -0.121462375
0.0024366183 0.053732656 0.012720056 -0.032860924 0.087004624 0.16978839 -0.06538071 0.09288563
0.23079781 0.007161443 -0.013009208 0.26327032 -0.15190764 0.028373169 -0.08128452 -0.046127234
0.07385833 -0.008095593 0.087234944 -0.13169141 0.08764374 0.06352354 0.06939873 -0.20501791
-0.09172082 -0.0068429243 -0.009359341 0.08003623 -0.16945739 -0.07613045 0.11477793 -0.020241408
0.11518898 -0.027920326 0.014247225 0.029089121 -0.045275252 -0.08500964 -0.061905507 -0.026686452
0.057989128 0.037096903 0.043204952 -0.058879703 0.18605681 -0.09528063 -0.010834736 -0.04918515
0.077503935 -0.08328708 0.30248284 -0.01844588 0.052568715 -0.060163956 -0.013170012 0.17721462

context_transformer_0/ffn_layer_0/intermediate_dense/einsum/Einsum;context_transformer_0/ffn_layer_0/intermediate_dense/Relu;context_transformer_0/ffn_layer_0/intermediate_dense/add f4 [32]
00000000: c37b 14be 6662 2fbe 0d96 abbe 9142 e5be
00000010: 4b39 9bbe 2f05 1abe 801b 86be 8c79 ee3c
00000020: a95d 06be 0198 cebe 95c6 54be 79af 7cbd
00000030: a92c 16be f461 b5be 43e3 19be 6800 3ebe
00000040: 4dea c0bd f8ef 7cbe fe3f 73be 4d24 9abe
00000050: 6667 95bd 97c8 2dbe 53a7 97bd 2b32 58be
00000060: a142 5fbe 7a4e a0be 0d1a e0be 7a8e 83be
00000070: 42d4 39be 34bc d3bd 9fb1 34be b1f4 3ebe
-0.14500336 -0.1712738 -0.33512917 -0.4477735 -0.3031715 -0.1504104 -0.26192856 0.029110692
-0.13121666 -0.40350345 -0.20778878 -0.06169078 -0.14665474 -0.35426295 -0.150281 -0.18554842
-0.09419689 -0.24700916 -0.2375488 -0.3010582 -0.07295112 -0.1697105 -0.074049614 -0.21112888
-0.2180276 -0.31309873 -0.43769875 -0.25694638 -0.18147376 -0.10338631 -0.17645882 -0.1864803

context_transformer_0/attention/norm/mul;context_transformer_0/attention/norm/add;context_transformer_0/ffn_layer_0/intermediate_dense/einsum/Einsum;context_transformer_0/ffn_layer_0/intermediate_dense/Relu;context_transformer_0/ffn_layer_0/intermediate_dense/add f4 [32, 32]
00000000: a09d b03e e069 92bc 9242 1b3d a68c 07be
00000010: 07a4 353d 3b67 a13e 5513 853e 459c 093e
00000020: f210 483e 2d1c b8be df4b e3bc b392 3b3e
00000030: 9773 773e 7a0c f93d 374e 9dbe 28ab d6be
00000040: ab4a a1bd 1bd9 8b3d bcc3 30be a37f cabd
00000050: e5aa b33d 0393 f9be efb9 7bbe 38e4 913b
00000060: 22a5 03be 00fa 2cbe dd73 0a3e 461a 03be
00000070: f103 60bd d649 ce3a 4ee7 a03e 2ac3 31bd
00000080: a417 63be e636 58be b370 71be 115b 973e
00000090: 2216 833e 7663 803d 3581 d5bc 3c71 0dbc
000000a0: b465 4cbe 8fe3 1e3e 09b5 403d c441 f2bd
000000b0: e21a 173e a626 8d3d 249e a13e f273 0f3e
000000c0: 7dfa ac3e 4baa 1bbe 65a5 26bd 5f5e 043d
000000d0: 98b5 2fbc 1dfd a33d bdab 2dbe 25be e9bc
000000e0: 476e 7b3c 5f35 b33e b77b e83d d300 4a3e
000000f0: febb 923e bcd4 223d aeca 193e b966 ac3e
00000100: 4f03 48be 2cfe 533e d30d 673d 916f dc3d
00000110: 6d6c f3bd 6b77 ca3c 3575 c43d 2c56 a0be
00000120: af0f 62be 1809 6b3e 474d f1bd 640e 6abe
00000130: 133c b23a 0d2e 353e ab0a 6bbc 1710 233e
00000140: c98f 613c 215d e5be 5b85 2e3e a777 253e
00000150: 3a76 c83d 1a86 94be c9d5 503e 2f97 033e
00000160: 8984 203e edec 00be 69c6 383e 7e55 373d
00000170: d762 5b3e d3cc 27be 3800 86bc 7050 443d
00000180: ecc7 1e3e 7f9a e33d 5049 7b3e 800d f93d
00000190: 3c95 cf3d 3c6e b2be 8015 9e3e 5719 46be
000001a0: 0260 d3bd 82e1 403e 30c7 7fbd 8a35 e43d
000001b0: 5e5f b43d 31c5 813e 0792 46be 5860 64be
000001c0: d518 1d3d bb90 ef3d 59e6 78bd c8d3 9f3b
000001d0: 11ab 5dbd 2732 5abe 66c3 06bc 63b0 203e
000001e0: 6477 23bf 81ac 143c 04da 173e bccb 183d
000001f0: 8ff1 f5bc 6a92 66be 9ac9 fa3d f717 d83d
00000200: d47b 8a3e 80fe 0ebc 6e64 f1bc 3408 8fbc
00000210: 3ff1 2e3e 8d14 5b3e 10cd 913e 310d 6dbd
00000220: db1a ad3d c685 143d 33f5 f13e 5382 81bc
00000230: fc2e a5bd 576d b63e 3f59 2fbe 6357 f4bd
00000240: 2b1f 24be 983f 42bd 3995 4ebe 43e3 9dbd
00000250: 8087 393c 1182 aebc eb8d 23bd 282b ad3d
00000260: 4d1f efbb 2fb5 2fbd 56a9 0ebe 238b 8a3e
00000270: 122b 8a3e 48fe ab3e 15b2 9c3d e90e 163d
00000280: 7da6 f03c 8167 243d bb2a 8abe b0d5 883d
00000290: c32a 0abd 3f7d d1bc 7a88 7abc 6b18 073d
000002a0: adaa 8d3c 6a87 4a3e a7ec 65bb 76e4 12be
000002b0: c733 45be 7ef0 ae3c 3977 8f3d f4ac c83d
000002c0: 0bc5 d43c ca3e 573d 074a 643d b234 513c
000002d0: d92f 3dbd 3d25 62be 733c 003c 903a efbd
000002e0: 32b7 fc3b c3ba d03c 0157 b53d d0c3 203e
000002f0: 2a73 823d b1ef efbc 8253 de3b 4c90 873d
00000300: 8e59 db3d 1ebc 8a3d 596d c13e 1083 b1bd
00000310: 5b21 82bc 7cdf 333e 7027 f7bd eed9 533e
00000320: 88c6 1e3e 3f5a 93bc 2655 cabd c54d 6c3e
00000330: 7fa1 c6be aff2 8d3d a8d2 dc3d b144 78bd
00000340: 8380 98be 2dc0 c1bd 3671 b0bd 1261 80bc
00000350: 02b9 133e 9da5 293e 9044 c9be fb36 4abd
00000360: a241 9e3e 1e7c 8fbb 46b2 73be 4ef8 8d3c
00000370: e9df 23be 11fc dc3e a1a9 333e 0851 453e
00000380: 575e 2d3e d0c5 b63d 2098 82bc c05e 053e
00000390: ede8 d13e 2eaa a83d b5dd 26be 0606 b93c
000003a0: 54cd dabd 3b87 f33d db92 08be 81f9 ad3d
000003b0: 2f6b 543e 3c9c 153d 8024 40bd 68ef 9c3d
000003c0: ec9d 2cbd 00f9 c1be c595 523e 7c32 9c3d
000003d0: 7c04 f73b 3259 9a3e 7dfc 42bc 77d2 b63e
000003e0: cb2e 733e 3d4d 39be be5c 60be 5536 e4bd
000003f0: c131 7e3d 3cce 63bc 603a e73d 6bd9 b5bd
0.34495258 -0.01787275 0.037905283 -0.13237247 0.04434588 0.3152407 0.25991312 0.13438518
0.19537714 -0.35958996 -0.02774614 0.1831768 0.24165188 0.12160583 -0.30723736 -0.41927457
-0.0787557 0.06828519 -0.17262167 -0.09887626 0.0877283 -0.48744974 -0.24582647 0.0044522546
-0.12855962 -0.16892242 0.13520761 -0.12802991 -0.05469126 0.0015738558 0.3142647 -0.043399014
-0.22176987 -0.21114692 -0.23578148 0.29561666 0.25602823 0.06268971 -0.026062587 -0.008632954
-0.19960672 0.15516494 0.04704765 -0.1182895 0.14756349 0.06892137 0.31565964 0.14009073
0.33784857 -0.1520168 -0.040685076 0.03231656 -0.010724448 0.08007262 -0.16960044 -0.02853305
0.015346116 0.35001656 0.11351722 0.19726877 0.28659052 0.03975366 0.15018722 0.3367212
-0.19532512 0.20702428 0.05640967 0.10763467 -0.11885915 0.024715146 0.09592668 -0.31315744
-0.22076295 0.22952688 -0.117823176 -0.22857052 0.0013598226 0.17693348 -0.014345805 0.15924107
0.013767191 -0.44797614 0.17043059 0.16158925 0.09788175 -0.2900856 0.20394053 0.1285064
0.15675558 -0.1259038 0.18044437 0.044759266 0.21424423 -0.16386728 -0.016357526 0.047928274
0.15505952 0.11113452 0.24539685 0.12160778 0.10135886 -0.34849727 0.30875778 -0.19345604
-0.103210464 0.18836024 -0.06244582 0.11143024 0.08807252 0.25345758 -0.19391643 -0.22302377
0.03835376 0.11697527 -0.06076655 0.004877541 -0.05411822 -0.21308194 -0.008225298 0.15692286
-0.6385405 0.009074331 0.1482926 0.03730367 -0.03002241 -0.2251679 0.12245484 0.10551446
0.27047598 -0.00872767 -0.029466834 -0.017459966 0.17084216 0.21394558 0.28476763 -0.05787391
0.08452388 0.03626039 0.47257385 -0.015809214 -0.08065602 0.35630295 -0.17123888 -0.1193073
-0.16027515 -0.04742393 -0.20174111 -0.07709362 0.01132381 -0.021302255 -0.039930265 0.08455497
-0.0072974325 -0.0428974 -0.13931784 0.27059278 0.26985985 0.3359244 0.07651154 0.036635313
0.029376263 0.04013777 -0.26985726 0.06681383 -0.033732187 -0.025572417 -0.015291328 0.03298227
0.017293299 0.19778219 -0.0035083683 -0.14344963 -0.19258033 0.02135491 0.07005162 0.09798613
0.025972864 0.052550115 0.05573466 0.012768911 -0.04618821 -0.22084518 0.007826912 -0.11681092
0.0077122683 0.02547968 0.08854485 0.15699697 0.06369622 -0.029289098 0.0067848573 0.06619319
0.107104406 0.06774162 0.37778738 -0.08667576 -0.015885046 0.17565721 -0.12068069 0.20688602
0.15505421 -0.017987369 -0.09879522 0.23076542 -0.38795087 0.06931054 0.10782367 -0.060612384
-0.29785547 -0.09460483 -0.08615343 -0.015671287 0.14426044 0.16567083 -0.39310122 -0.04936884
0.3090945 -0.0043788096 -0.23798475 0.017330315 -0.16003384 0.4316106 0.17545177 0.19269192
0.16930519 0.089244485 -0.01594168 0.13024426 0.4099802 0.08235584 -0.16295512 0.02258588
-0.106836945 0.118910275 -0.13337271 0.08494855 0.20744012 0.03652595 -0.04690981 0.076628506
-0.042142794 -0.37885284 0.20564945 0.07626817 0.0075383764 0.30146176 -0.011901018 0.35707447
0.23748319 -0.1809587 -0.21910378 -0.111431755 0.062059168 -0.013904151 0.11290431 -0.0887936

context_transformer_0/ffn_layer_1/intermediate_dense/einsum/Einsum;context_transformer_0/ffn_layer_1/intermediate_dense/Relu;context_transformer_0/ffn_layer_1/intermediate_dense/add f4 [32]
00000000: 55b2 b4be c92e fb3b 4c06 21bd c2fc ccbe
00000010: 49c6 f4be 8bef 9bbe e9bd 91be 7b6b 9abd
00000020: ded6 15be 7e81 05be 88bd 52be ceb8 3fbd
00000030: 436a 62be 7ef2 82bd 6ba5 cbbd e97e a4be
00000040: ee06 b2be 80a6 43be 423c 02be 38f1 18be
00000050: 3b0b 7abe 8708 acbe 8195 4abe 04c4 adbe
00000060: c7ad eebd 04f9 3dbe bee6 0abe 73ee 30be
00000070: f98a e0bd 5cca e1be 8a50 68be 47e5 cfbd
-0.35292307 0.0076654893 -0.039312646 -0.4003659 -0.4780753 -0.30456194 -0.28465202 -0.075400315
-0.14632747 -0.13037679 -0.20580113 -0.046807103 -0.22110848 -0.06393908 -0.0994366 -0.32128075
-0.34770912 -0.19106483 -0.12718299 -0.14935768 -0.24418347 -0.33600256 -0.19783594 -0.3393861
-0.11654239 -0.18552023 -0.13564584 -0.17278461 -0.10964007 -0.440997 -0.22686973 -0.10151153

context_transformer_0/ffn_layer_0/norm/mul;context_transformer_0/ffn_layer_0/norm/add;context_transformer_0/ffn_layer_1/intermediate_dense/einsum/Einsum;context_transformer_0/ffn_layer_1/intermediate_dense/Relu;context_transformer_0/ffn_layer_1/intermediate_dense/add f4 [32, 32]
00000000: 5c91 bd3d aad7 70bc 007e debd 860e a13c
00000010: 53de 04be 533a b6be daaa e73d f2b5 9fbe
00000020: ef44 133e 0e34 41be 7a19 8a3e 0598 b3bd
00000030: 5395 dfbe d348 ab3e 31ba 263e 46fb 3a3d
00000040: c6e9 54be 1c4d 3cbe b77e 883e 533e 7a3e
00000050: 6d17 83be 73ff 71be 16e2 153d 3d9b bc3e
00000060: 3a58 973e 77d1 b3be 35e6 203e c32a 153e
00000070: 67d7 5b3e 14d6 babd 1c2a 8b3e e77f e63d
00000080: 8c27 ad3d ba57 11be 63c3 89be 5eca 2bbd
00000090: 55d3 a43d d4ff a23e 77d3 b93d cf2b 9939
000000a0: 3e45 813d 977f aebe 15d0 8dbc 094c 65be
000000b0: 77a1 91be 50cb 1a3e c3af 543c 9e77 403d
000000c0: 1ba0 563e 164e 3d3e 3417 883e f748 6e3d
000000d0: d970 cb3d 4023 263e ba69 3b3e d32b 19be
000000e0: 8ae6 003d 4d88 c6be ae4b fd3d cf7f d53d
000000f0: 9625 b83d f0b8 e13c 1193 8f3e 04f2 59be
00000100: 66fa 533e 7724 933b c1ef fb3d 4be1 ff3e
00000110: fd39 9c3c 272b 06bf 8308 4fbe 99ee a9be
00000120: 2e21 923e ef05 49bc 0bcd 493d ea96 dd3c
00000130: 44d1 c7bc b3e4 463e a810 00be 5cda 42be
00000140: 9dd2 98be 1f0f 28bd 59e7 70be 7cae b83d
00000150: be5f 25be bee5 073d 8fce aebd 173e 133e
00000160: aa4f 6e3d 1219 26bd 0920 423e 3bd1 883e
00000170: 0496 bbbd b819 fdbd 9949 043e 0c7e 323e
00000180: f8f1 5cbd 995f 95bb 64f3 7cbd 7f44 b8bd
00000190: 5ae8 16be dfbc b6bd 0aa7 103d 877e ab3c
000001a0: f2f6 823c f4c4 4abd b669 2bbe 5be8 e6be
000001b0: 9c57 c6bd 8108 243e 8125 133d cb39 9dbd
000001c0: 6519 163e 4437 00be 9a14 21be 1ca6 143e
000001d0: acce d8bd 2221 893d 1609 c8bc 29a4 eebd
000001e0: 5aef d13e fa9d 70bd de7a e13d 96f5 8e3d
000001f0: 9bb8 263c 02fa 35be 4634 233e f5e7 53be
00000200: 5cff 35bd 1626 e93e 3f20 f5bd 94c4 3cbc
00000210: 0dd9 93be 0731 9b3e 91f5 703e 8f9c 3a3d
00000220: c0a4 cb3d a808 b2be 2772 ad3e 27cb 9fbd
00000230: 46d1 de3d 8eca 863e 1c0f 063e 4195 dd3e
00000240: a50f 343e 8e6f 8a3e 4b3d 7b3c 8a0d 66bd
00000250: bb93 0fbf 314b a93e ccad 783d e42d 2d3e
00000260: f3a0 2dbe 5fcc d9be e87d 033f bd88 163e
00000270: b65d e4bd 037f b63d 71c4 fcbb d0c1 b93e
00000280: 5291 9b3e 6a96 2b3e 618c 013e fd96 04be
00000290: 9253 64be 3dc9 bebe 8bfe 0c3e 4d8d 4bbe
000002a0: 02f4 9c3e 74fe 033e 624d 303e 364d 4b3e
000002b0: 46f2 eabd dae5 483e 4296 043e 36b8 23be
000002c0: daea 41be 7ce0 963e af45 9e3e 4968 aebc
000002d0: 34fe 2dbd c1be 463d 237f d93d f0fb 84bd
000002e0: ed72 b5bd 16bb a5be c4f0 c23e b951 71bd
000002f0: f9ee 19be facc 603c b365 a43e 4179 c33d
00000300: e1e6 713e 9c8e a03d 492b 3a3e fb89 fd3d
00000310: 7615 26be 9782 f8bd 8cd6 b73c 5815 f7be
00000320: 9d6a 433e 4aa5 8dbd ea3c 84bd 2b55 77be
00000330: 7958 763e 4ae6 a43d fb17 ab3e b7fb 0c3c
00000340: a531 57bc f5f2 333e 3cd4 a7bd 9aaf f83d
00000350: 4068 d3bc 98e4 b13c 1be4 8f3e 6c2a ed3d
00000360: 40dc 04be 93e7 323e c486 353e 15e0 d3bc
00000370: ee7e 683e 44c1 84be 58dd cc3d 2d51 2f3e
00000380: 3993 ab3d 95f3 973e 8919 c93d 347a 82be
00000390: 68a2 abbd d056 bebd f715 013f 3f00 d03d
000003a0: 6744 263e bf48 f5be 2d95 b13e 6bda 80bd
000003b0: ea80 52be 5ecd 953d 32b3 28bd 38c5 8ebe
000003c0: 08e7 89be cf98 b3bd 2f76 393e 45ab 32be
000003d0: ebe7 d5bc be41 a0be 1601 1c3e 0de6 a93d
000003e0: 4c14 193e ba91 10be 480b 0bbe 5f30 b13d
000003f0: b43d 8ebc 29c4 063f 3a27 9d3e 99fb 7bbe
0.09256241 -0.014699856 -0.10863876 0.019660246 -0.12975435 -0.35591373 0.11311884 -0.311935
0.14381765 -0.18867514 0.26972562 -0.0876923 -0.43668613 0.33453998 0.16281964 0.04564979
-0.20792302 -0.1838879 0.26659176 0.24437837 -0.2560381 -0.23632602 0.036592565 0.36837187
0.295595 -0.35120746 0.15712817 0.14567094 0.21468888 -0.091228634 0.27180564 0.11254864
0.084548086 -0.14193621 -0.2690688 -0.04194104 0.08048121 0.31835806 0.09073537 0.00029215074
0.06312035 -0.34081718 -0.017311135 -0.22392286 -0.284435 0.1511662 0.012981358 0.046989076
0.20959513 0.18486819 0.26580203 0.058175053 0.09933633 0.16224384 0.1830205 -0.14958124
0.03146986 -0.38775864 0.123679504 0.10424768 0.08991544 0.027554005 0.2804189 -0.21283728
0.20700988 0.004490431 0.12301589 0.49976572 0.01907062 -0.52409595 -0.2021809 -0.33189848
0.2854094 -0.012269481 0.04926781 0.0270495 -0.024391778 0.1942318 -0.12506354 -0.1902861
-0.29848185 -0.041030046 -0.23525752 0.09017655 -0.16149804 0.033178084 -0.08535492 0.14379154
0.058181442 -0.040551253 0.18957533 0.2672213 -0.091594726 -0.12358421 0.129187 0.17430896
-0.053941697 -0.0045585153 -0.061755553 -0.089974396 -0.14737073 -0.08922743 0.03531555 0.020934356
0.015986893 -0.049504235 -0.16739544 -0.45099148 -0.09684679 0.16018869 0.03592444 -0.07677039
0.14658125 -0.12521082 -0.15730515 0.1451649 -0.105862945 0.06695773 -0.024418395 -0.11652405
0.41002923 -0.05874441 0.11009763 0.069804356 0.010175849 -0.17771152 0.1593791 -0.20693953
-0.044432983 0.4553687 -0.11969041 -0.011521477 -0.28876534 0.30310842 0.23531176 0.045559462
0.09943533 -0.3477223 0.33876154 -0.0780242 0.108797595 0.26326412 0.13091701 0.43277934
0.17584093 0.27038234 0.015334438 -0.056165256 -0.56084794 0.3306518 0.06071262 0.16912037
-0.16955929 -0.42538735 0.5136399 0.14700599 -0.111506864 0.08910944 -0.0077138473 0.3628068
0.30384308 0.16756597 0.12651207 -0.12948222 -0.22297505 -0.37262908 0.13768975 -0.1987812
0.30654913 0.12890035 0.17217019 0.19853672 -0.11471991 0.19618931 0.12947944 -0.1598824
-0.18937245 0.29468143 0.3091254 -0.021289961 -0.042478755 0.04852176 0.106199525 -0.06493366
-0.08859811 -0.32369298 0.38074315 -0.058915827 -0.15032567 0.013720745 0.3210884 0.09544612
0.2362323 0.078397006 0.18180574 0.12379833 -0.16219124 -0.12134283 0.022441171 -0.4825847
0.19083638 -0.06916292 -0.06456931 -0.24153583 0.24057187 0.08051737 0.33416733 0.008604935
-0.013134395 0.1757315 -0.08194777 0.12142868 -0.025806546 0.021715447 0.28103718 0.11580357
-0.12974644 0.17471151 0.1772719 -0.025863687 0.2270467 -0.259287 0.100031555 0.1712081
0.0837769 0.29678026 0.098193236 -0.2548386 -0.08380586 -0.09293902 0.5042414 0.10156297
0.16237031 -0.47907063 0.34684125 -0.0629166 -0.2055699 0.07314561 -0.04118652 -0.2788484
-0.26934075 -0.0876938 0.1811149 -0.17448147 -0.026111564 -0.31300157 0.15234789 0.08295832
0.14949149 -0.1411809 -0.13578522 0.08651804 -0.017363407 0.52643067 0.3069399 -0.24607696

context_transformer_0/ffn_layer_2/intermediate_dense/einsum/Einsum;context_transformer_0/ffn_layer_2/intermediate_dense/Relu;context_transformer_0/ffn_layer_2/intermediate_dense/add f4 [32]
00000000: 9037 513b e91b 43bd 4c1c 46be 046d 91be
00000010: 322d 69be 6bba a9be 5c7a dcbc 04ba 94be
00000020: 2601 acbe 49ca abbe 00de 3b3d d4d1 6d3d
00000030: 33fd 53bc 01df 7bbe c5b8 abbe c768 86be
00000040: 606d a13c 1b42 3dbd e3ee b4bd 07e6 b4bd
00000050: 99f9 2abe 6ea0 053e cfe6 7bbe 567a 82be
00000060: 1283 093b d85f ddbc 360a 5abe 7cf1 57be
00000070: 96a8 d0bc c1c9 6cbe b65f 7cbe fc14 fabd
0.0031923987 -0.04763404 -0.19346732 -0.28403485 -0.22771147 -0.33150038 -0.026913814 -0.2904817
-0.33594626 -0.3355277 0.045866013 0.058061436 -0.012938785 -0.24596788 -0.33539405 -0.26251814
0.019705474 -0.04620562 -0.088346265 -0.08832937 -0.16696776 0.1304948 -0.24599765 -0.2548396
0.0020982665 -0.02702324 -0.21292958 -0.21088213 -0.025471013 -0.23123838 -0.24645886 -0.12211034

context_transformer_0/ffn_layer_1/norm/mul;context_transformer_0/ffn_layer_1/norm/add;context_transformer_0/ffn_layer_2/intermediate_dense/einsum/Einsum;context_transformer_0/ffn_layer_2/intermediate_dense/Relu;context_transformer_0/ffn_layer_2/intermediate_dense/add f4 [32, 32]
00000000: 1c26 ec3d 90f0 d23e da0d 8b3d 449d 243e
00000010: 696c e03d 76a4 b8bc 4d37 98be b53b 2fbd
00000020: bcbc 6f3e 7dd0 893d d08b 203b 72af 0abe
00000030: d764 43bd e456 5a3b bcde c7bd caeb 733d
00000040: 1ef2 79be ea92 aabe 96ef 043c 43f0 303e
00000050: 83b6 1c3d c631 4ebe 1101 57be 8635 8c3e
00000060: ed27 813b 37af c03d 8e43 033f 0644 67be
00000070: a66a a2bd 0eba 113e f77b a2bd 9ca4 b03d
00000080: 0506 16bd b534 563e 3033 e2bd be90 38be
00000090: 2b47 263e d084 a93c dc6c 11be fb92 333e
000000a0: 0e57 4c3d 6333 a43e 0259 3f3e 6f3c b83b
000000b0: f5f5 33be eb0a 3a3e 7cdb 69be c11e 123e
000000c0: 2d5c 1a3e 96ab 163c 03b3 4c3d 57b8 393e
000000d0: 93da 1abe 1e5d 36bc dfa1 e6bd 27b3 5abc
000000e0: 272c 603e d1ac 393d e311 c63e 6d32 82be
000000f0: b963 663d b77c 77bd 5d8e 38be 06ab cb3d
00000100: abcd a3be cc48 d0bd bcad 91bd 3da8 0c3e
00000110: a407 d9bd 5929 083e 9efd bcbd 18cd de3d
00000120: 2d7c 8f3c 8de5 963d 9332 03be 3c6d e83b
00000130: ca00 82bd ce8e a23d 892e e73d faad c63b
00000140: 5154 39be 2419 54bd fa79 00be 0c6d 9d3c
00000150: 4851 80be 3a7d 513d 2303 1f3d bfec b33d
00000160: 4fb1 f83d cc5c 503e fbef 5c3e 480e 5cbc
00000170: 61c4 94be 8aec 903e 0d8d 8b3c 12ff 283d
00000180: 7995 b4bd 1720 463e fa49 263c 7e2b 863d
00000190: 0d95 bf3d 0b42 4f3e bfb0 fa3d c3e1 df3d
000001a0: 84c2 1d3e 0b00 27bd 91ac 7cbd f99f 113c
000001b0: 7e58 a03d aed4 103f f980 83bd 745d 883d
000001c0: f5b4 513d 0006 acbd b126 6d3d 516a ebbd
000001d0: 8cf5 9dbe 2370 cabb 190c c2bd 29fc 33bd
000001e0: e37f 1ebe b355 da3c de53 b33d bec6 d83d
000001f0: 0ce9 b03c a6b8 643e a841 b73c 2abd ad3d
00000200: 136c f5bd 8e96 873e bf29 0e3d 6229 fa3d
00000210: f074 1dbe 309a f43d 6d95 20be 14ad 25be
00000220: d6a2 a8bd e532 783e 1673 71bc ca62 d0bd
00000230: 505e 613d 3f4d 833c fa9a cdbd d6fd 09bd
00000240: 25bd a03d 94b8 a4be fa80 43be 76f9 803e
00000250: 0157 5b3e 128f f83a 1656 c03d e979 18bd
00000260: f84b 2e3e eed8 a33e d978 a33b d5b2 32be
00000270: 78b2 6dbd 6d4b c23d e2fb b6be 4a36 043e
00000280: 1e83 213d 17b4 e73d 58ce 9dbc 43fa fc3d
00000290: 356b 13be c24c e03e c7de 3ebe b284 9bbe
000002a0: 733e 7ebb 6d42 19be c0a1 4bbe a7b1 84bd
000002b0: fac9 603e 775d 1e3e b877 b53c 037c 6dbe
000002c0: 687d 5abd 7fe5 e9be 222b 413d c127 b73e
000002d0: 44d8 e1bd f060 b33e a360 f9bb 9450 8d3e
000002e0: 08a3 b43e 8ade c3bd 3776 bb3e bb35 7abc
000002f0: d4dc 6f3d 936f 63be bf5a 183d 85a0 2ebd
00000300: a0a1 b4bd 4aa8 663e a2a5 8b3e a316 a93d
00000310: a641 4dbe 82aa 9a3e 1636 84bd 7735 e73d
00000320: 433d 423d b907 08be eeda a43c 965e e83d
00000330: 07fd 6a3e 9a8a a93d 76cb 9fbe 5811 72be
00000340: 184a a8bd 8fdd 463e 82a3 cc3e 1e6f 40bd
00000350: f52f 303d c310 923e 88cc aebc d92e 613e
00000360: c8e9 b6bd b9a2 7e3d 4e8e 183e 06e4 5dbe
00000370: 54c8 5e3d b30a 3fbd 0ab0 523d 0595 b03d
00000380: 820f 86bd 0811 863e b6c6 eb3d 1158 153d
00000390: a053 a83d 5072 c43c 4eec 7f3d 623f 723e
000003a0: a4db 623d de76 a2bd 4bec 9a3d 5127 09bd
000003b0: ecf5 f83c bcf7 053f 4cfc d3bd 7636 853d
000003c0: 908e a33c e55b 1b3d 4768 313c efdc 9e3b
000003d0: e33e 90be f7d9 92bd 4f7a 88bd 3ba1 d8bd
000003e0: 9c73 fc3c 47f0 57bd dae1 233e 5b6c 1fbc
000003f0: 5235 213e 4d58 243d 1d1b 0dbc ed0b 893c
0.11530706 0.4119916 0.06789751 0.16075617 0.109581776 -0.022539359 -0.2972969 -0.04278155
0.2341184 0.06729219 0.0024497397 -0.1354349 -0.04770359 0.003331595 -0.0975928 0.059551038
-0.24408767 -0.33315212 0.008113762 0.17279153 0.038259994 -0.20136175 -0.209965 0.27384585
0.003941527 0.094084196 0.51274955 -0.22584543 -0.07930498 0.1423113 -0.07933801 0.08625147
-0.036626834 0.20918544 -0.110449195 -0.18023965 0.16238086 0.020693213 -0.14201683 0.17536537
0.04988771 0.32070455 0.18686298 0.0056224386 -0.17574294 0.18168227 -0.22837633 0.14269544
0.15074225 0.009196183 0.049975406 0.18136726 -0.15122442 -0.011130599 -0.11261343 -0.013348377
0.21891843 0.045330826 0.3868552 -0.25429097 0.056247447 -0.06042167 -0.18023057 0.099447295
-0.3199285 -0.10170135 -0.07113215 0.13736053 -0.105971605 0.13297023 -0.09228061 0.10878962
0.017515266 0.07368002 -0.12812261 0.0070931 -0.06347807 0.07937394 0.11288173 0.00606322
-0.1809857 -0.05178179 -0.1254653 0.019217037 -0.25062013 0.051144816 0.03882135 0.0878539
0.12143194 0.20347899 0.2157592 -0.013431139 -0.29056075 0.28305465 0.017035032 0.04125888
-0.08817572 0.19348179 0.010149473 0.06551264 0.09354601 0.20240037 0.12240743 0.109317325
0.15406233 -0.040771525 -0.06168801 0.008888238 0.078293785 0.56574523 -0.06421084 0.0665845
0.051197965 -0.08399582 0.057898227 -0.114948876 -0.308514 -0.0061779185 -0.09474964 -0.04394165
-0.15478472 0.026652193 0.08756231 0.10584782 0.0215955 0.22336063 0.022370175 0.08483346
-0.11983504 0.26482052 0.03470778 0.122149244 -0.1537664 0.119434714 -0.15682001 -0.16179305
-0.082341835 0.24238165 -0.014736911 -0.101750925 0.055021584 0.016028045 -0.10039325 -0.033689342
0.078485765 -0.32172072 -0.1909217 0.25190324 0.21419908 0.0018963537 0.093914196 -0.037225638
0.17021167 0.32001442 0.0049887714 -0.17451032 -0.05803153 0.094870426 -0.35739046 0.12911335
0.039431684 0.11313646 -0.019263431 0.12352421 -0.14396365 0.43808562 -0.1863967 -0.30374676
-0.0038794547 -0.14966746 -0.19885921 -0.06479197 0.21952048 0.15465342 0.022151813 -0.23191838
-0.053342253 -0.45682904 0.047160275 0.35772517 -0.110275775 0.35034895 -0.007610397 0.2760054
0.35280633 -0.0956393 0.36613628 -0.015271599 0.058560207 -0.22210531 0.037195917 -0.042633552
-0.0881989 0.22525135 0.27274805 0.08256271 -0.20044574 0.30208212 -0.064556286 0.112894945
0.047421705 -0.13284196 0.020123925 0.11346166 0.22948085 0.08278389 -0.31209916 -0.23639429
-0.08217257 0.19420455 0.39968497 -0.04698097 0.043014485 0.28528413 -0.021337762 0.21990527
-0.08931309 0.062166903 0.14898035 -0.21669015 0.054390267 -0.046641063 0.051437415 0.08622173
-0.06545927 0.2618487 0.115125105 0.03646094 0.08219075 0.02398029 0.062481217 0.23656991
0.055385247 -0.07932828 0.075646006 -0.03348476 0.030390702 0.5233114 -0.10350856 0.06504528
0.01996544 0.037929434 0.010828084 0.0048481147 -0.2817298 -0.0717048 -0.066639535 -0.10577627
0.030816846 -0.05271938 0.16004124 -0.009730424 0.15742996 0.040123273 -0.008612421 0.01672932

context_transformer_0/ffn_layer_3/intermediate_dense/einsum/Einsum;context_transformer_0/ffn_layer_3/intermediate_dense/Relu;context_transformer_0/ffn_layer_3/intermediate_dense/add f4 [32]
00000000: 348d 7bbe 3447 16be 53f1 853c 6e97 9839
00000010: a52e 9abc c2c6 26be 1294 85be e011 b23d
00000020: a98f 03be 9a05 24be 622a c43b 4622 84be
00000030: 8487 51be e76e 29be 1da1 a1bd 1478 68be
00000040: 27de 85bd 94de e8bd 2713 f7bd e2a4 29be
00000050: 52ee 8bbd 05bc 22be 8e8b 55bd c499 adbd
00000060: add0 84be f4de a1bd 95dc b1be de10 0ebe
00000070: 24af 6fbe d07e 07bc 43e8 0bbe 69fb 65be
-0.24565583 -0.146756 0.016350424 0.00029104523 -0.01882107 -0.16286758 -0.2608953 0.08694816
-0.12847771 -0.16017762 0.0059864977 -0.258074 -0.20461851 -0.16546212 -0.07892058 -0.22702056
-0.06536513 -0.113705784 -0.120642 -0.16566804 -0.06832565 -0.15892036 -0.052135043 -0.08476594
-0.25940457 -0.07903853 -0.34738603 -0.13873622 -0.23406655 -0.008269981 -0.1366282 -0.22459187
