example/.dart_tool/chrome-device/Default/optimization_guide_prediction_model_downloads/ab38231e-ea4b-4881-a629-b2923186bca1/model.tflite (tflite, 410364 bytes, 166 tensors)

context_transformer_0/bottleneck_input/norm/add f4 [32]
-0.013549069 0.117178015 0.0018696126 0.031712625 0.12686113 0.12102026 -0.0072550382 0.09628299
0.006401739 -0.14905432 0.029598432 -0.06863111 -0.022516277 0.00952048 -0.021411546 0.051974762
-0.05463674 -0.049298152 -0.06276423 -0.002057206 -0.15993801 0.030244593 -0.11047476 -0.017070115
-0.004221823 0.03791853 -0.023853844 0.03614801 0.18634209 0.0110135935 0.048646588 -0.044668235
00000000: eafc 5dbc 07fb ef3d ca0d f53a 19e5 013d
00000010: e2e7 013e 78d9 f73d acbb edbb 0430 c53d
00000020: aec5 d13b b2a1 18be 6978 f23c 788e 8cbd
00000030: 0e74 b8bc cafb 1b3c 4467 afbc 7de3 543d
00000040: c6ca 5fbd dcec 49bd 888a 80bd 30d2 06bb
00000050: cac6 23be 82c3 f73c 9740 e2bd a0d6 8bbc
00000060: 3857 8abb 7650 1b3d 2369 c3bc f00f 143d
00000070: 76d0 3e3e 5c72 343c a541 473d 0af6 36bd

context_transformer_1/bottleneck_input/norm/add f4 [32]
-0.02088936 0.20647895 -0.07761097 0.038263284 -0.050983064 -0.05744557 0.07924284 -0.06125
0.0831205 -0.011799673 0.0670328 0.050835736 -0.08912136 0.30875385 0.017780747 -0.0016381405
0.19914182 -0.083709665 0.1693128 -0.06815658 0.054760374 -0.046725243 0.37305343 0.02015091
0.018782321 -0.07504782 -0.00830638 0.04457681 -0.028120177 0.14258793 0.0070340093 0.032512512
00000000: 2a20 abbc 386f 533e 80f2 9ebd f6b9 1c3d
00000010: 9ed3 50bd 0c4c 6bbd 124a a23d 48e1 7abd
00000020: 153b aa3d 6a53 41bc 7e48 893d 2239 503d
00000030: 4285 b6bd fc14 9e3e eea8 913c e0b6 d6ba
00000040: d5eb 4b3e f96f abbd 5660 2d3e ad95 8bbd
00000050: 6a4c 603d f862 3fbd dc00 bf3e 8513 a53c
00000060: 62dd 993c acb2 99bd 7c17 08bc 2c96 363d
00000070: 495c e6bc 9202 123e 8c7d e63b d72b 053d

mention_transformer_0/bottleneck_input/norm/add f4 [32]
0.18065572 0.062233645 -0.045119017 -0.019065656 0.04801812 0.15714464 -0.26814717 0.18828472
0.06689871 0.2206548 -0.0292672 0.3201133 0.10378319 -0.036927722 -0.016579492 0.17009056
0.10698664 0.04165866 0.1434891 -0.22320126 -0.07429384 -0.0033031765 0.11815074 0.18554085
-0.27239686 -0.017815331 -0.032798655 0.018887496 0.15721872 -0.046099246 -0.017142937 0.08622773
00000000: d0fd 383e b5e8 7e3d b8ce 38bd 942f 9cbc
00000010: a6ae 443d 86ea 203e 964a 89be b6cd 403e
00000020: 3102 893d 55f3 613e c4c1 efbc e4e5 a33e
00000030: 488c d43d 8641 17bd b7d1 87bc 382c 2e3e
00000040: d01b db3d 45a2 2a3d ceee 123e df8e 64be
00000050: 5e27 98bd 1b7a 58bb 04f9 f13d 6cfe 3d3e
00000060: 9a77 8bbe 75f1 91bc e257 06bd f3b9 9a3c
00000070: f2fd 203e 90d2 3cbd 586f 8cbc 2a98 b03d

mention_transformer_1/bottleneck_input/norm/add f4 [32]
0.35256153 0.6756178 0.37453383 -0.26915663 0.11031219 0.49841923 -0.011952464 0.5006924
-0.1280687 -0.027559943 -0.53216577 0.1212245 -0.25055075 -0.048830096 0.3656133 0.17746376
-0.016803725 -0.015612805 0.055844277 -0.029156635 -0.18749851 0.30256256 0.116399765 0.16927819
0.032942843 -0.012044564 -0.35893452 -0.19533826 -0.005226476 -0.3930541 -0.28042907 0.21751258
00000000: f282 b43e 4af5 2c3f e6c2 bf3e e6ce 89be
00000010: 5ceb e13d ce30 ff3e 44d4 43bc 612d 003f
00000020: 7124 03be 64c5 e1bc 043c 08bf 8d44 f83d
00000030: 3048 80be 1102 48bd ab31 bb3e 0fb9 353e
00000040: f7a7 89bc dacc 7fbc f8bc 643d e5d9 eebc
00000050: 9cff 3fbe 7be9 9a3e 0063 ee3d 4357 2d3e
00000060: 13ef 063d 9056 45bc 44c6 b7be c106 48be
00000070: dc42 abbb 633e c9be 6694 8fbe 9ebb 5e3e

context_transformer_0/attention/value/add;context_transformer_0/attention/value/einsum/Einsum;context_transformer_0/attention/value/add/ReadVariableOp/resource f4 [32]
0.0047289603 0.022282979 -0.00886233 0.012565606 -0.055233914 -0.03782202 -0.01955427 -0.0008349378
-0.008907032 -0.058193825 -0.0007103979 -0.07150184 0.013956242 0.029491255 -0.046094898 0.04858587
-0.027549779 -0.008302676 0.07643105 0.0717836 -0.021198183 -0.015181671 0.06848563 -0.05403113
-0.005085985 -0.0065949224 0.008703559 0.031461574 -0.031721137 0.053417895 -0.03729715 0.020461375
00000000: 65f5 9a3b cb8a b63c 4e33 11bc f9df 4d3c
00000010: f53c 62bd 43eb 1abd 4730 a0bc badf 5aba
00000020: cdee 11bc a65c 6ebd ff39 3aba 8f6f 92bd
00000030: b9a8 643c a597 f13c 01ce 3cbd fa01 473d
00000040: 13b0 e1bc f207 08bc e287 9c3d 4803 933d
00000050: d0a7 adbc 8bbc 78bc 3242 8c3d bf4f 5dbd
00000060: 56a8 a6bb 381a d8bb 5f99 0e3c dadd 003d
00000070: 06ee 01bd b9cc 5a3d e5c4 18bd 9d9e a73c

context_transformer_0/bottleneck_input/norm/mul f4 [32, 32]
-0.18022603 -0.08493096 -0.07019365 0.11647268 -0.18323945 -0.10917968 -0.08450884 -0.072913095
0.15006484 -0.16327007 0.45990893 0.3187071 -0.017737286 0.015790384 0.077284195 -0.20075902
0.13547836 -0.087162286 0.14432123 -0.16097093 0.044209484 0.4574131 0.18259867 -0.11917532
-0.023606475 -0.023540922 0.077380575 0.14457996 0.07835265 -0.11267106 -0.080742724 -0.15003537
0.0017552152 -0.004060414 0.1721297 -0.044231597 0.27410606 -0.51153105 0.01969165 0.26858482
0.01827691 0.30320302 -0.04367265 0.30763668 -0.66364783 -0.19013233 0.49184686 -0.038833376
0.17893498 0.342055 0.17907907 -0.075475134 0.5898604 -0.040830314 -0.39552757 -0.36237174
-0.06614185 0.2827326 0.10022126 0.16658725 -0.12378013 -0.0024542178 -0.37868774 -0.20748681
0.03585209 0.032626238 0.006125439 0.10086665 -0.099378325 0.05380586 0.19753705 -0.08938355
0.042368382 -0.08176548 -0.17735505 -0.20789677 -0.051622465 0.1469877 -0.08309201 0.03030945
0.07989793 0.07930508 -0.14011486 0.08989239 0.065778755 -0.08268438 0.019877015 0.06102729
-0.018765397 0.027596839 -0.05619165 0.08923253 0.07219409 0.11781138 -0.0056695696 0.093462005
0.028789787 -0.2676573 -0.21167572 -0.11609305 -0.39774284 -0.40946296 0.05047142 0.114293166
-0.2442042 0.15912591 -0.1615131 -0.5930891 0.014984263 0.15260471 -0.014395144 0.39992365
0.0017686365 -0.11909229 0.19774325 -0.098888315 -0.047606304 -0.104872674 0.6697442 0.04720782
0.27307242 -0.40185148 0.2057252 0.14781797 0.3087196 -0.10161777 0.2806911 0.4859444
-0.24942893 0.088614024 -0.13703668 0.07057707 0.3774255 -0.08617618 0.0006606514 -0.28958157
0.10488827 0.09098608 -0.05282054 0.29639506 -0.30283153 0.108361825 -0.24260624 0.14138727
-0.29350075 0.2747199 -0.61053276 -0.14618883 -0.3685352 -0.08726013 0.38906786 0.12181249
0.0784795 -0.1534419 -0.09677984 -0.13417535 0.35278222 -0.4550086 0.049876567 0.0031736551
-0.11629664 -0.025682453 -0.16188183 0.2597082 -0.1032833 0.042858828 0.10881285 -0.29904535
0.05814757 -0.11758051 -0.17804614 0.091376655 0.06474992 -0.017334962 -0.1445889 -0.05801661
-0.054068767 -0.054330006 -0.52018505 -0.17569064 0.00702386 0.04142661 0.13587481 0.13208479
0.2741364 -0.09638217 -0.029809937 -0.05742774 0.2450388 0.058325246 -0.15566789 0.13502002
-0.19806118 -0.06597057 -0.066583805 0.25344342 -0.1296922 -0.057466753 -0.05679661 0.23245782
0.6475162 -0.077708155 0.12118715 0.11250893 -0.18693937 -0.023169033 0.10969175 -0.056230877
-0.18164618 -0.13759938 0.032219585 -0.1813467 -0.006267996 0.28107998 0.15115374 -0.069612265
0.0145598855 -0.120894276 -0.11097856 0.16634287 0.027211415 0.075411536 0.07265074 0.25289893
-0.11627537 0.093740866 0.02653683 -0.004300936 0.1446248 0.33057073 0.16503644 0.22548503
-0.026431229 0.1467143 -0.18398899 0.7748335 -0.24306968 -0.6249362 -0.14831614 -0.25906226
0.028298069 -0.24160893 -0.094230235 0.49226028 0.050382763 -0.20497483 -0.4571972 -0.014693625
0.39243478 0.05852974 0.1808128 0.18718803 0.4714361 -0.25160968 0.025297184 0.03782953
00000000: 2c8d 38be 48f0 adbd b0c1 8fbd 3a89 ee3d
00000010: 1fa3 3bbe 9999 dfbd f912 adbd 7653 95bd
00000020: 99aa 193e 4530 27be 2f79 eb3e 942d a33e
00000030: c94d 91bc d65a 813c 2d47 9e3d c693 4dbe
00000040: d7ba 0a3e 2482 b2bd f2c8 133e 90d5 24be
00000050: 0115 353d 0d32 ea3e 25fb 3a3e 3112 f4bd
00000060: 5e62 c1bc e4d8 c0bc b579 9e3d c50c 143e
00000070: 5b77 a03d 16c0 e6bd 715c a5bd dfa2 19be
00000080: 400f e63a 390d 85bb c542 303e 312c 35bd
00000090: a157 8c3e b3f3 02bf 6250 a13c f383 893e
000000a0: 75b9 953c 6d3d 9b3e 18e2 32bd 8e82 9d3e
000000b0: d3e4 29bf 0db2 42be 5ad3 fb3e bf0f 1fbd
000000c0: bb3a 373e d521 af3e 8160 373e b592 9abd
000000d0: 1701 173f b03d 27bd 9782 cabe ca88 b9be
000000e0: 6175 87bd 54c2 903e ce40 cd3d d995 2a3e
000000f0: 7080 fdbd f1d6 20bb 5ce3 c1be 6c77 54be
00000100: a4d9 123d 17a3 053d e8b7 c83b 2d93 ce3d
00000110: dd86 cbbd 8963 5c3d 2747 4a3e b90e b7bd
00000120: 788a 2d3d a974 a7bd 909c 35be e4e2 54be
00000130: 1472 53bd f283 163e 252c aabd 864b f83c
00000140: 87a1 a33d b46a a23d 457a 0fbe 8019 b83d
00000150: 03b7 863d 6e56 a9bd 1fd5 a23c c0f7 793d
00000160: e4b9 99bc c412 e23c 3729 66bd 8bbf b63d
00000170: 7fda 933d 1847 f13d ccc7 b9bb 0269 bf3d
00000180: 8fd8 eb3c 610a 89be 85c1 58be 31c2 edbd
00000190: f3a4 cbbe 21a5 d1be 1fbb 4e3d 8912 ea3d
000001a0: aa10 7abe e7f1 223e b163 25be b0d4 17bf
000001b0: 8e80 753c 6944 1c3e 9cd9 6bbc cbc2 cc3e
000001c0: 98d1 e73a a9e6 f3bd 357d 4a3e f585 cabd
000001d0: d4fe 42bd 7cc7 d6bd 5b74 2b3f fd5c 413d
000001e0: 26d0 8b3e 7abf cdbe a0a9 523e 985d 173e
000001f0: 7f10 9e3e fa1c d0bd beb6 8f3e b4cd f83e
00000200: 4c6a 7fbe 457b b53d 5853 0cbe b68a 903d
00000210: ea3d c13e 237d b0bd 912f 2d3a 0944 94be
00000220: a9cf d63d e956 ba3d 5a5a 58bd 18c1 973e
00000230: bc0c 9bbe ceec dd3d c56d 78be d3c7 103e
00000240: bb45 96be 16a8 8c3e e04b 1cbf 86b2 15be
00000250: a5b0 bcbe 70b5 b2bd e733 c73e d478 f93d
00000260: dcb9 a03d e01f 1dbe 8234 c6bd 4365 09be
00000270: df9f b43e e3f6 e8be 5f4b 4c3d 19fd 4f3b
00000280: ef2c eebd 0264 d2bc 5ac4 25be 79f8 843e
00000290: 3286 d3bd bd8c 2f3d 46d9 de3d 791c 99be
000002a0: 252c 6e3d 0dce f0bd ba51 36be af23 bb3d
000002b0: 9b9b 843d 0d02 8ebc 1d0f 14be d3a2 6dbd
000002c0: 3677 5dbd 2489 5ebd d92a 05bf 3fe8 33be
000002d0: 6828 e63b f3ae 293d c422 0b3e 3c41 073e
000002e0: 9b5b 8c3e 0464 c5bd f833 f4bc 5a39 6bbd
000002f0: 74eb 7a3e 74e6 6e3d 6767 1fbe b042 0a3e
00000300: 8dd0 4abe 941b 87bd 175d 88bd 56c3 813e
00000310: 08ce 04be 4262 6bbd 90a3 68bd 6c09 6e3e
00000320: 9fc3 253f 7425 9fbd f830 f83d 156b e63d
00000330: 096d 3fbe fccc bdbc 11a6 e03d 5952 66bd
00000340: 7501 3abe dae6 0cbe aff8 033d f3b2 39be
00000350: c363 cdbb b7e9 8f3e 0cc8 1a3e e090 8ebd
00000360: 968c 6e3c 6b97 f7bd ba48 e3bd c955 2a3e
00000370: 79ea de3c 5d71 9a3d e9c9 943d f87b 813e
00000380: c821 eebd 36fb bf3d c463 d93c deee 8cbb
00000390: 8618 143e 9140 a93e 50ff 283e 8ce5 663e
000003a0: 4e86 d8bc 463c 163e 9c67 3cbe 7d5b 463f
000003b0: 42e7 78be d2fb 1fbf 30e0 17be cfa3 84be
000003c0: 5ad1 e73c 5568 77be c8fb c0bd 8a09 fc3e
000003d0: 285e 4e3d ece4 51be c015 eabe 88bd 70bc
000003e0: 36ed c83e e1bc 6f3d fe26 393e 38ae 3f3e
000003f0: 1360 f13e fcd2 80be 0a3c cf3c 23f3 1a3d

context_transformer_0/kq_shared_bottleneck/norm/mul;context_transformer_0/kq_shared_bottleneck/norm/add;context_transformer_0/attention/key/einsum/Einsum;context_transformer_0/attention/key/add;context_transformer_0/attention/value/einsum/Einsum;context_transformer_0/attention/key/add/ReadVariableOp/resource f4 [32]
0.13851106 0.12125627 -0.051766843 0.22106616 0.11931397 -0.25955796 0.25633854 -0.22314675
0.15758798 0.2149211 0.13573073 -0.21936733 0.31167054 0.3550118 0.22925733 -0.37430406
-0.24444118 -0.009585857 -0.24931592 0.24941687 -0.16475306 -0.119764335 -0.0056661163 -0.45098767
0.30884802 0.2235128 0.29140663 -0.2929195 0.261166 0.08654025 0.21688472 0.28446016
00000000: d8d5 0d3e 3555 f83d 7809 54bd 2b5f 623e
00000010: e25a f43d c8e4 84be ce3e 833e 9580 64be
00000020: be5e 213e 4714 5c3e fffc 0a3e d4a1 60be
00000030: 4893 9f3e 1bc4 b53e 6fc2 6a3e c8a4 bfbe
00000040: ca4e 7abe 000e 1dbc ac4c 7fbe 2367 7f3e
00000050: 07b5 28be 0147 f5bd d4aa b9bb dbe7 e6be
00000060: 5421 9e3e 8ae0 643e 4033 953e 8bf9 95be
00000070: 8db7 853e 043c b13d 0717 5e3e c3a4 913e

context_transformer_0/kq_shared_bottleneck/norm/mul;context_transformer_0/kq_shared_bottleneck/norm/add;context_transformer_0/attention/key/einsum/Einsum;context_transformer_0/attention/key/add;context_transformer_0/attention/value/einsum/Einsum;context_transformer_0/attention/key/add/ReadVariableOp/resource1 f4 [32, 32]
-0.23039158 0.037428893 0.02569343 0.17374022 0.1739816 -0.11375298 -0.11056005 0.25700006
0.26817638 -0.024425175 -0.013235534 0.25105622 0.028623953 0.0074988417 -0.1703201 -0.05850818
-0.26778787 -0.22724773 -0.20145956 0.09083552 -0.14678435 -0.26484022 0.03835049 0.0058270986
-0.12870075 0.04408355 -0.03537678 -0.19571695 0.2903552 -0.05861279 0.1523445 0.20237657
-0.06989407 -0.48469087 -0.04298146 0.2348486 -0.13899343 0.11053478 0.41440913 0.6114877
0.31491098 -0.036893737 0.2983093 -0.1786177 -0.011284794 0.0036798709 -0.12091155 -0.1532281
0.08952834 -0.46298128 0.014997738 -0.1584226 0.036496885 0.05126035 0.2769431 0.1486466
-0.27062106 0.117031835 -0.2459983 -0.26338473 -0.27563575 0.19831035 0.31109485 0.030964237
0.1151664 0.24310982 -0.118889704 -0.30692 -0.120840065 0.041881524 -0.06371287 -0.32291347
-0.24538812 0.10195118 -0.14312385 -0.19409181 -0.05284 -0.048675828 0.14639278 0.05212356
0.07696529 0.3374988 0.09035125 0.08724759 0.027809428 0.08259091 -0.10900106 -0.11983841
0.12352219 -0.14626811 0.054012153 0.23340069 -0.12200017 -0.15368572 -0.15363097 -0.13572614
-0.15293767 -0.10524246 -0.19149631 -0.22951095 0.19348271 -0.13863222 0.2165812 0.3422335
0.3062021 0.12477753 -0.1338195 -0.09069931 -0.07586366 -0.024410028 -0.20100671 -0.20559883
-0.11735363 -0.26357377 -0.096773036 -0.091357045 -0.059139613 -0.110007614 0.0014647149 0.23449168
-0.19858336 -0.018407393 -0.11468144 -0.17580353 0.121172234 -0.044010494 0.25748885 0.18610622
-0.19133712 0.019821962 0.005167746 0.1142237 0.20877238 -0.06571668 -0.062717624 0.20927872
0.30822808 0.027378505 -0.052031517 0.22109702 0.0048179138 0.0414326 -0.17276362 -0.09427841
-0.21028616 -0.22918001 -0.1831772 0.0640929 -0.16462302 -0.28762513 0.009949889 -0.013650164
-0.09818946 0.019322261 0.010239314 -0.21124673 0.23396318 -0.041060694 0.1120433 0.1648909
0.14616 0.2431941 0.13813122 -0.01350815 -0.09378199 0.11675108 -0.20942464 -0.4655741
-0.29587185 -0.0593839 0.03602131 0.021861097 0.03529099 -0.0057719285 0.16990624 0.18355142
0.11904856 0.26068118 0.07327998 -0.0015413057 0.13808653 0.22856814 -0.14435609 -0.1558806
0.23520537 -0.01923735 0.18414237 0.25567058 -0.06261462 0.060278576 -0.28481492 -0.16897023
-0.22504862 0.0134652965 -0.13454784 -0.11692682 0.2154333 -0.20214143 0.009167914 0.2763495
0.2706481 0.1219346 -0.16393681 0.09542544 -0.048810724 -0.06064989 -0.2028823 -0.12726158
-0.26792553 -0.16758297 -0.15535787 0.020953625 -0.1483225 -0.2598411 0.0002461409 0.06387762
-0.11739463 -0.059986755 -0.11476824 -0.23654476 0.24686053 -0.15508492 0.22345005 0.21618095
0.2071276 0.03227188 0.1004515 0.085593514 -0.19320159 0.13826023 -0.056658175 -0.3400485
-0.30956668 -0.039656088 0.117347464 -0.040109325 0.056317005 0.03919367 0.18925668 0.16340457
0.19520421 0.24730366 0.17070815 -0.0037905953 0.14474913 0.27650332 -0.013995739 -0.10600713
0.16900527 0.01770509 0.10356278 0.21153668 -0.21053565 0.11523892 -0.20264058 -0.2201746
00000000: c5eb 6bbe 0a4f 193d 077b d23c f5e8 313e
00000010: 3c28 323e 53f7 e8bd 4f6d e2bd 8395 833e
00000020: 6a4e 893e 4e17 c8bc dad9 58bc 718a 803e
00000030: c87c ea3c d8b8 f53b 6468 2ebe 46a6 6fbd
00000040: 7e1b 89be a1b3 68be 6a4b 4ebe f907 ba3d
00000050: a34e 16be 2399 87be 6715 1d3d 3ff1 be3b
00000060: 21ca 03be f490 343d 3ee7 10bd 066a 48be
00000070: 70a9 943e f713 70bd 3200 1c3e ce3b 4f3e
00000080: 9f24 8fbd 6729 f8be 540d 30bd 277c 703e
00000090: 4b54 0ebe 0f60 e23d 6f2d d43e 758a 1c3f
000000a0: 033c a13e e31d 17bd ffbb 983e 8fe7 36be
000000b0: dbe3 38bc fd29 713b 7aa0 f7bd d4e7 1cbe
000000c0: a25a b73d e20b edbe 13b9 753c 8939 22be
000000d0: c27d 153d 5ff6 513d 7ccb 8d3e d036 183e
000000e0: d88e 8abe 63ae ef3d fae6 7bbe 5dda 86be
000000f0: 2120 8dbe de11 4b3e d347 9f3e b6a8 fd3c
00000100: 5ddc eb3d c8f1 783e 727c f3bd 9e24 9dbe
00000110: ff7a f7bd f68b 2b3d e57b 82bd ea54 a5be
00000120: 0647 7bbe c8cb d03d 0f8f 12be 01c0 46be
00000130: c16e 58bd 4e60 47bd fde7 153e 847f 553d
00000140: fa9f 9d3d a5cc ac3e 130a b93d ddae b23d
00000150: 99d0 e33c 6c25 a93d f33b dfbd d76d f5bd
00000160: 34f9 fc3d 4fc7 15be d93b 5d3d 9700 6f3e
00000170: 3adb f9bd ca5f 1dbe 7051 1dbe cbfb 0abe
00000180: b19b 1cbe 5c89 d7bd 9c17 44be eb04 6bbe
00000190: 5520 463e 9bf5 0dbe 76c7 5d3e 3b39 af3e
000001a0: 86c6 9c3e 5d8b ff3d fb07 09be 8fc0 b9bd
000001b0: 685e 9bbd 8af7 c7bc b4d4 4dbe 8088 52be
000001c0: 1a57 f0bd 24f3 86be f130 c6bd 6719 bbbd
000001d0: 613c 72bd ac4b e1bd adfb bf3a 961e 703e
000001e0: 7059 4bbe 1acb 96bc 1ade eabd d705 34be
000001f0: 2629 f83d 5944 34bd 94d5 833e a192 3e3e
00000200: e1ed 43be ab61 a23c 3256 a93b 1dee e93d
00000210: 6dc8 553e 7796 86bd 1972 80bd 294d 563e
00000220: 12d0 9d3e e348 e03c 001f 55bd 4267 623e
00000230: 97df 9d3b 3bb5 293d f2e8 30be 0a15 c1bd
00000240: 4155 57be 2aae 6abe ce92 3bbe 2343 833d
00000250: f092 28be 9a43 93be dc04 233c f0a4 5fbc
00000260: 8e17 c9bd b849 9e3c ccc2 273c 1051 58be
00000270: 0b94 6f3e 422f 28bd f576 e53d 29d9 283e
00000280: f8aa 153e e007 793e 4572 0d3e 4a51 5dbc
00000290: c610 c0bd 311b ef3d 6a73 56be ba5f eebe
000002a0: 847c 97be 883c 73bd 158b 133d 0b16 b33c
000002b0: 498d 103d 7222 bdbb e7fb 2d3e e7f4 3b3e
000002c0: bbcf f33d 0178 853e d013 963d a305 caba
000002d0: 8e66 0d3e c40d 6a3e 15d2 13be 2a9f 1fbe
000002e0: add9 703e a697 9dbc d18f 3c3e 41e7 823e
000002f0: 183c 80bd abe6 763d 43d3 91be 8806 2dbe
00000300: 2573 66be 8c9d 5c3c e9c6 09be 5477 efbd
00000310: 8c9a 5c3e 2afe 4ebe 0535 163c af7d 8d3e
00000320: 6392 8a3e d9b8 f93d 0ddf 27be 6a6e c33d
00000330: c1ed 47bd 056c 78bd 61c0 4fbe dc50 02be
00000340: 892d 89be df9a 2bbe 2216 1fbe f0a6 ab3c
00000350: dae1 17be e509 85be 790c 8139 45d2 823d
00000360: 996c f0bd acb4 75bd 9c0b ebbd ca38 72be
00000370: 02c9 7c3e 95ce 1ebe 17d0 643e 8a5e 5d3e
00000380: 4219 543e 852f 043d 84b9 cd3d a74b af3d
00000390: a3d6 45be 1794 0d3e 6712 68bd d61a aebe
000003a0: 867f 9ebe 6c6e 22bd de53 f03d ad49 24bd
000003b0: a9ac 663d 8b89 203d 81cc 413e 8753 273e
000003c0: 9de3 473e 2c3d 7d3e 1ece 2e3e a36b 78bb
000003d0: 1e39 143e d891 8d3e 624e 65bc 441a d9bd
000003e0: b80f 2d3e 440a 913c b918 d43d 129d 583e
000003f0: a896 57be 6202 ec3d 0381 4fbe 7375 61be

context_transformer_0/kq_shared_bottleneck/norm/mul;context_transformer_0/kq_shared_bottleneck/norm/add;context_transformer_0/attention/query/einsum/Einsum;context_transformer_0/attention/query/add;context_transformer_0/attention/value/einsum/Einsum;context_transformer_0/attention/query/add/ReadVariableOp/resource;context_transformer_0/attention/Mul;context_transformer_0/attention/Mul/y f4 [32]
-0.019656632 0.23573919 -0.06655919 -0.017470019 -0.03479227 -0.056512125 -0.04924233 0.0321669
-0.14104226 -0.18086663 -0.1462689 0.19360705 -0.23741205 -0.16216148 -0.19685972 0.16863064
0.20411299 -0.13536897 0.25525263 -0.00852337 0.18183638 0.12757741 0.16890557 0.050157316
-0.14709342 -0.11054608 -0.15034531 0.056324277 -0.13085477 0.04620777 -0.11724859 -0.12967505
00000000: f206 a1bc 9d65 713e 2f50 88bd 491d 8fbc
00000010: 5782 0ebd 4279 67bd 53b2 49bd 70c1 033d
00000020: 626d 10be 1a35 39be 84c7 15be ed40 463e
00000030: 251c 73be a90d 26be 9895 49be 83ad 2c3e
00000040: ff02 513e 2a9e 0abe 79b0 823e 9ba5 0bbc
00000050: 5133 3a3e a7a3 023e 95f5 2c3e c271 4d3d
00000060: a89f 16be fc65 e2bd 1ff4 19be 49b4 663d
00000070: cbfe 05be 5c44 3d3d 0720 f0bd 89c9 04be

context_transformer_0/kq_shared_bottleneck/norm/mul;context_transformer_0/kq_shared_bottleneck/norm/add;context_transformer_0/attention/query/einsum/Einsum;context_transformer_0/attention/query/add;context_transformer_0/attention/value/einsum/Einsum;context_transformer_0/attention/query/add/ReadVariableOp/resource;context_transformer_0/attention/Mul;context_transformer_0/attention/Mul/y1 f4 [32, 32]
0.010194505 0.120520495 0.026208546 -0.057082094 -0.084898464 0.021507584 -0.008843518 -0.04257096
-0.017697278 -0.104854584 0.026647948 -0.12254209 -0.03294586 -0.10825966 -0.072056256 0.044806536
0.033066418 0.004102044 -0.049947795 0.08027187 -0.033299718 -0.11017489 0.04532799 -0.14152387
-0.040866263 -0.04761987 -0.02229504 0.014651382 0.0783025 0.01584394 -0.044741306 0.011387599
0.107261755 -0.11749998 -0.01683039 -0.1824236 -0.15766422 -0.10858287 0.16050509 0.15078002
0.01440651 -0.02710657 0.08167448 -0.23790728 -0.018466441 0.020768357 -0.06285379 -0.012295736
-0.045934163 -0.053579032 -0.007811456 0.021958085 -0.13384762 -0.20208576 0.18081059 -0.04938395
-0.1165723 -0.00962696 -0.16222563 -0.07704294 -0.0065123904 -0.06991552 0.07382375 0.09821767
-0.046807874 -0.080844484 -0.038868282 0.06709895 0.10744675 0.030549238 0.0017034218 -0.027752245
0.02401479 0.055097822 -0.08732941 0.12955481 0.00058716984 0.060442735 0.043095723 -0.06417384
0.0021851775 -0.013114993 0.03191799 -0.0588852 0.070999816 0.133465 -0.082638845 0.09578368
0.049068622 0.017030265 0.089283705 0.049850803 -0.051285025 0.016958922 -0.010586242 -0.020199934
-0.008570142 0.0682298 -0.046102446 -0.13337336 -0.029086003 0.008403915 0.07471798 0.056531295
0.051233914 -0.055948615 0.006078782 -0.16580397 -0.040137596 -0.12764986 -0.09470854 -0.04041246
0.028353397 -0.09147099 -0.048349716 -0.049838517 -0.035256956 -0.06147958 0.04640936 -0.06652481
-0.081239484 -0.051342573 -0.076449335 -0.05009959 0.039859354 0.020083973 0.02278918 0.07901029
0.025522549 0.10401394 0.010531888 -0.0434423 -0.07287041 0.025601324 -0.014891179 -0.04451111
0.011271237 -0.09634977 0.039648414 -0.106452204 -0.03013109 -0.09834664 -0.052551225 0.041201048
0.027612954 -0.01923146 -0.05083281 0.057037912 -0.032549504 -0.09286622 0.05247003 -0.16004427
-0.04611667 -0.03512951 -0.030298956 0.011934937 0.07339553 0.025003143 -0.032705788 0.025131807
-0.019955432 -0.04025155 0.014093903 0.115236185 0.059060577 0.037829485 -0.075412676 -0.0388748
-0.030610472 0.07946476 0.0067644548 0.14867866 0.042360187 0.07727065 0.10024493 0.030598521
0.0001417172 0.061714437 0.060226545 -0.014605344 0.057478532 0.11929659 -0.058571402 0.119336426
0.112376615 0.03833583 0.06323109 0.023149284 -0.08148443 0.027875623 0.00093757425 -0.10722039
-0.025289621 0.113337226 -0.014477213 -0.071711875 -0.03584691 0.0141012035 0.03624965 -0.029788384
0.038288116 -0.09383531 -0.009715437 -0.1317243 -0.050575037 -0.12394083 -0.0813394 -0.023721911
0.036186073 -0.068200976 -0.05327378 0.015060066 -0.010086186 -0.06405683 -0.00019281432 -0.12745124
-0.08363397 -0.051936246 -0.016519448 0.016559843 0.081735454 0.034501713 -0.028893521 0.079899296
-0.0031100921 -0.10445091 0.024182325 0.10095903 0.050921038 -0.014609885 -0.049488146 0.008775453
-0.032241285 0.10691639 0.011975471 0.15471518 0.04578407 0.10999719 0.07603498 0.005684037
-0.02597109 0.05812705 0.055814777 -0.020496314 0.031017575 0.07941463 -0.032894094 0.1408153
0.08943228 0.06247767 0.040031772 -0.0055307797 -0.062207773 -0.020549666 0.020445934 -0.070653714
00000000: da06 273c 73d3 f63d 4eb3 d63c eace 69bd
00000010: 3fdf adbd ac30 b03c 67e4 10bc e35e 2ebd
00000020: e2f9 90bc 00be d6bd cc4c da3c 59f7 fabd
00000030: 3df2 06bd 3eb7 ddbd 3b92 93bd 0f87 373d
00000040: a770 073d 706a 863b 0f96 4cbd 9465 a43d
00000050: 4965 08bd 5fa3 e1bd d8a9 393d a2eb 10be
00000060: 6263 27bd 0e0d 43bd 16a4 b6bc 5a0c 703c
00000070: 105d a03d 27cb 813c a942 37bd 0d93 3a3c
00000080: 0dac db3d d4a3 f0bd e3df 89bc 41cd 3abe
00000090: bb72 21be b260 debd 725b 243e 1466 1a3e
000000a0: 4809 6c3c 990e debc f344 a73d f79d 73be
000000b0: ef46 97bc 6722 aa3c 7db9 80bd 0e74 49bc
000000c0: 7625 3cbd b075 5bbd 3ef7 ffbb 71e1 b33c
000000d0: 5a0f 09be 92ef 4ebe 6926 393e d346 4abd
000000e0: 75bd eebd 66ba 1dbc 7a1e 26be b0c8 9dbd
000000f0: e465 d5bb de2f 8fbd e830 973d 5926 c93d
00000100: 9db9 3fbd cb91 a5bd 5934 1fbd 2d6b 893d
00000110: 0b0d dc3d 6542 fa3c 5a45 df3a ad58 e3bc
00000120: aaba c43c 41ae 613d c3d9 b2bd 04aa 043e
00000130: 4dec 193a cd92 773d 2485 303d 936d 83bd
00000140: 3235 0f3b 45e0 56bc 70bc 023d 9c31 71bd
00000150: 5a68 913d 0dab 083e 8e3e a9bd 3c2a c43d
00000160: 2efc 483d 0e83 8b3c 60da b63d 5b30 4c3d
00000170: 3f10 52bd 70ed 8a3c eb71 2dbc 557a a5bc
00000180: c869 0cbc 11bc 8b3d ebd5 3cbd 0793 08be
00000190: c545 eebc 93b0 093c be05 993d 5c8d 673d
000001a0: a7da 513d 602a 65bd 8530 c73b 84c8 29be
000001b0: 5267 24bd a5b6 02be 8df6 c1bd 8987 25bd
000001c0: 6245 e83c 2455 bbbd 5a0a 46bd 7923 4cbd
000001d0: 9969 10bd 03d2 7bbd be17 3e3d 293e 88bd
000001e0: e360 a6bd 974c 52bd 7891 9cbd 3a35 4dbd
000001f0: 9043 233d 2587 a43c 60b0 ba3c 26d0 a13d
00000200: aa14 d13c 4305 d53d f18d 2c3c 8ef0 31bd
00000210: 153d 95bd deb9 d13c 22fa 73bc 4851 36bd
00000220: ffaa 383c 0753 c5bd 6066 223d 9d03 dabd
00000230: 7ad5 f6bc f769 c9bd f43f 57bd 6ec2 283d
00000240: 9034 e23c 4b8b 9dbc 1136 50bd 96a0 693d
00000250: a152 05bd a530 bebd d0ea 563d a5e2 23be
00000260: d5e4 3cbd f6e3 0fbd 8435 f8bc c18a 433c
00000270: 6550 963d 64d3 cc3c 81f6 05bd 38e1 cd3c
00000280: 9379 a3bc cfde 24bd 1dea 663c f300 ec3d
00000290: 81e9 713d 17f3 1a3d f671 9abd 2f3b 1fbd
000002a0: d0c2 fabc 6cbe a23d 5ca8 dd3b 383f 183e
000002b0: e081 2d3d 1340 9e3d 374d cd3d c0a9 fa3c
000002c0: ec99 1439 47c8 7c3d 1cb0 763d 414b 6fbc
000002d0: 9c6e 6b3d c551 f43d 91e8 6fbd a866 f43d
000002e0: b625 e63d 0806 1d3d 4d7f 813d 91a3 bd3c
000002f0: 4fe1 a6bd 6b5b e43c 8bc7 753a 5d96 dbbd
00000300: 2e2c cfbc 591d e83d d531 6dbc addd 92bd
00000310: 36d4 12bd bc08 673c 837a 143d c506 f4bc
00000320: 00d4 1c3d ba2c c0bd 7f2d 1fbc bce2 06be
00000330: c527 4fbd b1d4 fdbd 4595 a6bd 7454 c2bc
00000340: d937 143d f4ac 8bbd 9b35 5abd 7fbe 763c
00000350: 8840 25bc 3a30 83bd 332e 4ab9 9482 02be
00000360: 4948 abbd 1abb 54bd cb53 87bc 82a8 873c
00000370: eb64 a73d ab51 0d3d 1bb2 ecbc 3ea2 a33d
00000380: b0d2 4bbb 5cea d5bd 031a c63c 9cc3 ce3d
00000390: 9492 503d 4d5e 6fbc 15b4 4abd ebc6 0f3c
000003a0: 700f 04bd fbf6 da3d c434 443c a86d 1e3e
000003b0: 1488 3b3d 3546 e13d 3ab8 9b3d 2941 ba3b
000003c0: 53c1 d4bc a116 6e3d 099e 643d e3e7 a7bc
000003d0: 9218 fe3c 23a4 a23d f5bb 06bd e331 103e
000003e0: 4528 b73d 96e8 7f3d 5bf8 233d 8b3b b5bb
000003f0: 94cd 7ebd c657 a8bc 3b7e a73c e5b2 90bd

context_transformer_0/ffn_layer_0/intermediate_dense/einsum/Einsum;context_transformer_0/ffn_layer_0/intermediate_dense/Relu;context_transformer_0/ffn_layer_0/intermediate_dense/add f4 [32]
-0.2928462 -0.119229 -0.31717527 -0.19964257 -0.23876636 -0.1728599 -0.20242085 -0.062061623
-0.13550612 -0.32760015 -0.3883234 -0.072995305 -0.2886819 -0.0241446 -0.3107259 -0.1886571
-0.25574365 -0.3524867 -0.42277896 -0.030962553 -0.33875623 -0.34098074 -0.2462812 -0.34751415
-0.35029727 -0.10543463 -0.19600831 -0.40036812 -0.2004451 -0.22692785 -0.359153 -0.1977263
00000000: f0ef 95be 552e f4bd cc64 a2be 1a6f 4cbe
00000010: 2b7f 74be 3002 31be 6947 4fbe 5434 7ebd
00000020: 1ec2 0abe 35bb a7be 53d2 c6be 907e 95bd
00000030: 1dce 93be e5ca c5bc 7717 9fbe 542f 41be
00000040: d5f0 82be 2379 b4be 7c76 d8be 2ea5 fdbc
00000050: 7571 adbe 0795 aebe 2431 7cbe 60ed b1be
00000060: 2a5a b3be 1cee d7bd 67b6 48be 0dfd ccbe
00000070: 7b41 4dbe c65f 68be e7e2 b7be c378 4abe

context_transformer_0/attention/norm/mul;context_transformer_0/attention/norm/add;context_transformer_0/ffn_layer_0/intermediate_dense/einsum/Einsum;context_transformer_0/ffn_layer_0/intermediate_dense/Relu;context_transformer_0/ffn_layer_0/intermediate_dense/add f4 [32, 32]
-0.01157011 0.1347247 -0.18950823 0.27498278 -0.2936643 -0.03557233 -0.011789047 0.044130947
-0.16285045 -0.037648678 0.15663646 0.013942785 -0.16066656 0.32213727 0.013978462 -0.11694921
0.17306793 -0.054055486 0.004685607 0.22767478 0.0071996674 -0.4033018 0.07839428 0.10990354
0.07883897 0.13355768 -0.20564471 0.319732 -0.31088895 0.1771451 0.32429823 -0.011640112
-0.29742277 -0.008620646 0.046171654 -0.15794267 -0.29024893 -0.047426134 -0.2326843 0.31300566
0.20344922 0.5750896 0.014512486 0.36295235 -0.26084322 -0.100459464 -0.31037384 -0.013488105
-0.0006496039 0.012218928 -0.031631388 0.12873407 -0.02395093 8.678028e-05 0.08683979 -0.38655356
-0.16103452 -0.29515946 0.060192384 -0.046014 -0.120235965 -0.12991592 -0.06887057 0.27937776
0.15862492 0.021033956 -0.043682773 -0.18693559 -0.4220006 -0.3319462 0.19490488 -0.2128903
0.07240646 -0.029337425 0.06790616 -0.02605938 0.12330847 0.07191281 -0.16266744 0.03378346
0.484455 0.066588126 0.45593497 -0.113164224 0.5996339 -0.0009352213 0.35267538 0.23240882
-0.10328362 -0.18486598 -0.31318042 -0.25264633 -0.17941926 0.09760294 -0.074069016 -0.19964102
0.28089815 0.25862202 0.016894393 0.21454997 0.033344924 -0.10847421 0.28482875 -0.47476742
-0.016685663 0.12977695 0.10429518 -0.40194815 0.010618419 0.08992416 -0.1444516 0.049267005
0.14100276 0.41177294 -0.058502078 -0.050391156 0.27338794 0.0011726521 0.36711967 0.16644807
0.11861286 0.050669394 0.38012043 0.16334157 -0.010352803 0.05921573 0.18641408 -0.08904107
-0.06599659 0.22288008 -0.25792935 -0.12277726 -0.1166298 0.054388426 -0.23573057 0.1656666
-0.04774077 0.11723776 0.0639818 0.12869258 -0.23159088 -0.17798243 0.31732583 -0.023599233
-0.023668265 0.10428096 0.07403011 0.21501036 0.23135877 -0.09489861 0.01345612 -0.40239275
0.19168805 -0.043078788 -0.19247815 -0.002942694 -0.17727955 0.14176218 0.043790177 -0.26547745
0.071843304 -0.08160653 0.00019530334 -0.120882735 -0.62732095 -0.32571936 0.3591599 -0.09005308
-0.18625209 0.09752386 0.061370708 0.2570893 -0.482739 -0.44116256 -0.059644002 -0.1477755
0.0992121 -0.19966811 -0.0852455 -0.09182845 0.2204433 -0.087310866 -0.32219234 -0.09989388
0.0030022787 -0.040174402 -0.24497977 -0.23385018 0.02410031 0.18486351 -0.27961802 -0.10542709
-0.11176386 -0.32740912 0.2898497 0.030094324 0.13448952 0.0076600863 0.095791906 0.06760398
0.008734008 0.21228354 -0.062472183 -0.0028555011 0.24780808 0.13829152 0.018766988 -0.37693974
0.10053291 0.22877054 0.2731372 -0.13465515 -0.008139817 0.4092981 -0.3521592 0.08282483
-0.23804943 0.023693657 0.06807346 0.35921994 0.13218936 -0.32049862 0.19949798 -0.02966879
-0.21413872 -0.37059566 0.06480813 0.3165437 -0.24952532 -0.24785006 -0.25080788 0.23977274
0.06079389 0.121762544 0.012817699 -0.26509145 -0.05624113 -0.056593347 -0.07543778 0.09528168
-0.085374966 0.23750766 0.04122757 0.15818295 -0.13971373 -0.008859387 -0.107299104 -0.3933095
-0.07687803 0.24039976 -0.25571957 0.033885635 -0.30138257 -0.33606932 -0.06406432 0.120925464
00000000: 8f90 3dbc 46f5 093e 720e 42be 8bca 8c3e
00000010: 2b5b 96be 4bb4 11bd d926 41bc a7c2 343d
00000020: 45c2 26be 8035 1abd 4f65 203e 4770 643c
00000030: c685 24be 2def a43e eb05 653c 1183 efbd
00000040: b838 313e 4969 5dbd b889 993b 9423 693e
00000050: 30eb eb3b 937d cebe 2e8d a03d 1b15 e13d
00000060: 5376 a13d 58c3 083e 8794 52be eab3 a33e
00000070: d62c 9fbe 8665 353e 6b0a a63e 2bb6 3ebc
00000080: cc47 98be 9c3d 0dbc 7d1e 3d3d b9bb 21be
00000090: 829b 94be e841 42bd cb44 6ebe 4742 a03e
000000a0: fe54 503e 1239 133f c7c5 6d3c e4d4 b93e
000000b0: 3e8d 85be b1bd cdbd 52e9 9ebe 36fd 5cbc
000000c0: 2e4a 2aba e631 483c ea8f 01bd ddd2 033e
000000d0: be34 c4bc cffd b538 0fd9 b13d 59ea c5be
000000e0: 3ce6 24be 241f 97be 4a8c 763d 2d79 3cbd
000000f0: 463e f6bd ae08 05be 030c 8dbd 9a0a 8f3e
00000100: 926e 223e 674f ac3c b5ec 32bd 0b6c 3fbe
00000110: 7610 d8be daf4 a9be 2595 473e eaff 59be
00000120: d749 943d 0a55 f0bc 6312 8b3d 7b7a d5bc
00000130: 2789 fc3d 0647 933d 4b92 26be 8660 0a3d
00000140: 7c0a f83e 5b5f 883d 4f70 e93e a5c2 e7bd
00000150: 9b81 193f a429 75ba de91 b43e 94fc 6d3e
00000160: 5d86 d3bd 824d 3dbe 2f59 a0be dc5a 81be
00000170: afb9 37be 0de4 c73d 7fb1 97bd b26e 4cbe
00000180: e2d1 8f3e 1b6a 843e 1c66 8a3c fdb2 5b3e
00000190: b094 083d ba27 debd 13d5 913e b714 f3be
000001a0: 5fb0 88bc 40e4 043e b698 d53d 26cc cdbe
000001b0: e1f8 2d3c 282a b83d 1feb 13be 33cc 493d
000001c0: 0763 103e e7d3 d23e e09f 6fbd f566 4ebd
000001d0: 81f9 8b3e adb3 993a 1cf7 bb3e 5d71 2a3e
000001e0: 4deb f23d b68a 4f3d 259f c23e 0343 273e
000001f0: ce9e 29bc 318c 723d 55e3 3e3e 2a5b b6bd
00000200: 3829 87bd ad3a 643e 510f 84be a572 fbbd
00000210: 9bdb eebd 66c6 5e3d 5b63 71be 81a4 293e
00000220: d38b 43bd 5a1a f03d e408 833d fdc7 033e
00000230: 2926 6dbe 0741 36be 8878 a23e 2e53 c1bc
00000240: f3e3 c1bc 4291 d53d 199d 973d ad2b 5c3e
00000250: 50e9 6c3e 345a c2bd 0f77 5c3c 6c06 cebe
00000260: df49 443e 6273 30bd fe18 45be 36da 40bb
00000270: c588 35be 1b2a 113e 545d 333d a9ec 87be
00000280: 9522 933d 5321 a7bd 57ca 4c39 5e91 f7bd
00000290: 1b98 20bf b0c4 a6be cee3 b73e c06d b8bd
000002a0: deb8 3ebe 97ba c73d da5f 7b3d 35a1 833e
000002b0: 9129 f7be 0fe0 e1be 454d 74bd 7652 17be
000002c0: b72f cb3d cc75 4cbe 3195 aebd 8e10 bcbd
000002d0: e3bb 613e 0ad0 b2bd 65f6 a4be 2a95 ccbd
000002e0: e1c1 443b ea8d 24bd fadb 7abe 6c76 6fbe
000002f0: 036e c53c dc4c 3d3e 182a 8fbe 28ea d7bd
00000300: 73e4 e4bd 2ba2 a7be 2e67 943e 5f88 f63c
00000310: 9fb7 093e 7601 fb3b 8c2e c43d f573 8a3d
00000320: 1619 0f3c db60 593e d5e2 7fbd 5c23 3bbb
00000330: 67c1 7d3e 4b9c 0d3e 3abd 993c 3ffe c0be
00000340: 33e4 cd3d d342 6a3e a4d8 8b3e 0ae3 09be
00000350: de5c 05bc 858f d13e 364e b4be 11a0 a93d
00000360: 3bc3 73be 3319 c23c 196a 8b3d adeb b73e
00000370: a65c 073e 6518 a4be 3349 4c3e f60b f3bc
00000380: 2e47 5bbe b7be bdbe 20ba 843d 0412 a23e
00000390: 9183 7fbe 68cc 7dbe e469 80be fc86 753e
000003a0: 0403 793d a45e f93d 5401 523c 11ba 87be
000003b0: 195d 66bd 6dce 67bd 1f7f 9abd 0b23 c33d
000003c0: 12d9 aebd 3535 733e 3ede 283d b6fa 213e
000003d0: 1e11 0fbe f626 11bc a2bf dbbd dd5f c9be
000003e0: 3b72 9dbd 5b2b 763e aded 82be aacb 0a3d
000003f0: d14e 9abe 4711 acbe 2734 83bd c5a7 f73d

context_transformer_0/ffn_layer_1/intermediate_dense/einsum/Einsum;context_transformer_0/ffn_layer_1/intermediate_dense/Relu;context_transformer_0/ffn_layer_1/intermediate_dense/add f4 [32]
-0.14335172 -0.24880445 -0.30615476 -0.23066433 -0.25138506 -0.115167014 -0.09249999 -0.20115957
-0.0930468 -0.21301594 -0.21519168 0.030219913 -0.3080395 -0.10404998 -0.1360598 0.12437214
-0.21551697 0.089751035 -0.030775849 -0.29053104 -0.15861852 -0.25360093 -0.40607932 -0.017967911
-0.27697998 -0.37953946 -0.1747291 -0.19877274 -0.2521748 -0.20926952 -0.24989656 -0.28382635
00000000: cbca 12be 98c6 7ebe 51c0 9cbe 4533 6cbe
00000010: 8bb5 80be afdc ebbd a270 bdbd c6fc 4dbe
00000020: 528f bebd da20 5abe 355b 5cbe c08f f73c
00000030: 5ab7 9dbe 2818 d5bd 4353 0bbe d2b6 fe3d
00000040: 7bb0 5cbe 64cf b73d a21d fcbc 7cc0 94be
00000050: e56c 22be fbd7 81be a1e9 cfbe 7131 93bc
00000060: 52d0 8dbe ff52 c2be 2fec 32be 158b 4bbe
00000070: 0e1d 81be c04a 56be e2e4 7fbe b051 91be

context_transformer_0/ffn_layer_0/norm/mul;context_transformer_0/ffn_layer_0/norm/add;context_transformer_0/ffn_layer_1/intermediate_dense/einsum/Einsum;context_transformer_0/ffn_layer_1/intermediate_dense/Relu;context_transformer_0/ffn_layer_1/intermediate_dense/add f4 [32, 32]
-0.016894883 0.12296925 0.21309887 0.23859821 -0.064558 -0.23956984 0.27130675 0.10597838
0.45141894 0.44411254 -0.099047296 0.10324549 -0.28115997 -0.16433218 -0.10065416 -0.12660605
-0.05333268 -0.04911439 -0.09670781 -0.13948746 0.0025323252 0.18366872 -0.19717135 0.050630227
-0.14418076 0.039072026 -0.029344287 -0.0057190196 0.021338496 -0.04569621 -0.02268377 0.021439454
0.32160354 0.17586872 -0.014060093 -0.13753088 -0.058314305 -0.092926435 0.203686 0.14526282
0.27960292 -0.039916456 -0.14180279 0.010942812 0.05046036 -0.25622627 -0.57132 -0.12900566
-0.173633 -0.2109449 0.1274135 0.0048455102 0.20980145 -0.01641401 0.019845115 -0.051892024
-0.12589562 0.06949929 0.2692917 -0.23379159 0.02341227 0.04209468 -0.16348442 0.19100776
-0.17054039 0.20725985 -0.22568859 0.32043076 0.037085257 -0.07862322 0.25768834 -0.02833726
0.005515245 0.34209177 0.11509487 -0.09682188 -0.075419046 0.18842581 -0.06761712 -0.0025738147
-0.0041190977 0.20032433 -0.2544976 -0.16496417 -0.1600086 0.080291085 0.27448943 -0.08095733
-0.15014672 0.0560231 0.3231724 -0.08351557 -0.07952404 0.1764503 -0.14627369 0.19075267
0.13590421 -0.02645374 -0.16149512 -0.25834915 0.16976382 0.09201871 -0.13222946 0.28894562
-0.20366308 -0.012395593 -0.12270618 0.19592619 -0.020751655 -0.34781465 0.1133234 -0.033402864
0.056087077 0.27629036 -0.059647754 -0.21479315 -0.009370157 0.558649 -0.0079082865 0.22121978
-0.25880495 0.12101128 -0.1874074 0.012431058 -0.19111875 0.11843847 -0.035725642 -0.02928209
-0.013083678 -0.108436614 0.050250508 -0.010539874 0.095132776 -0.29059923 0.0073990747 -0.093891926
0.005616928 -0.19225894 0.03850434 -0.17029902 0.27642295 0.24613985 -0.12553209 -0.22237726
0.08651274 0.291407 0.05493786 0.09543848 0.11628696 0.0065602926 0.35099944 -0.12060312
-0.29130274 0.0032702014 0.12658763 -0.19234245 0.09309313 -0.34741193 -0.06062343 0.09280329
-0.2032216 0.1687281 0.26400962 -0.02393123 0.12584907 0.12578915 -0.23627748 0.038175028
0.28552324 0.104135044 -0.2995342 0.038081918 0.08930202 0.22961044 -0.05971108 -0.25695038
0.20244524 -0.3119621 0.16242205 0.0589583 -0.080466285 -0.12104953 0.03338152 -0.12185349
-0.12147017 0.16629046 -0.41756773 -0.105226934 0.0677409 -0.07787711 -0.121538304 -0.025224324
-0.08831262 -0.13054527 0.14129585 0.25517112 0.12159434 0.09206392 0.18019162 -0.08752137
0.09261631 -0.07643682 -0.14806244 -0.01892936 -0.152345 0.24295017 0.16708551 -0.19212456
-0.13471517 0.42638642 -0.11940969 -0.1685575 0.21295893 0.115117185 0.31354877 -0.13117541
-0.29884866 0.044718027 -0.15569463 0.05374585 -0.036315896 -0.29815593 -0.102436244 0.12591347
0.19886802 0.11765205 -0.029313236 -0.16560857 0.01680121 -0.26619616 0.34888336 0.010879534
0.3079386 0.14786643 -0.22909227 0.19454275 -0.1842949 -0.094488114 0.15128872 0.005932323
0.03284908 -0.318335 0.09850442 -0.21781443 0.1250535 -0.25240877 -0.11075631 -0.43989748
0.16654569 -0.18227082 0.20551702 -0.10439885 0.090891026 0.030314507 -0.1597391 -0.14917576
00000000: 2367 8abc 4dd7 fb3d 9736 5a3e 1753 743e
00000010: fc36 84bd cc51 75be b8e8 8a3e 310b d93d
00000020: 6220 e73e b862 e33e 4fd9 cabd 5f72 d33d
00000030: 33f4 8fbe b246 28be c523 cebd 04a5 01be
00000040: 5e73 5abd 2c2c 49bd bf0e c6bd cdd5 0ebe
00000050: 5ef5 253b a713 3c3e 49e7 49be a461 4f3d
00000060: 1fa4 13be fd09 203d 6e63 f0bc 9d66 bbbb
00000070: 12ce ae3c f32b 3bbd 50d3 b9bc cba1 af3c
00000080: 38a9 a43e ee16 343e 4e5c 66bc e5d4 0cbe
00000090: fbda 6ebd 3750 bebd 1093 503e c7bf 143e
000000a0: 1d28 8f3e 707f 23bd c034 11be 7b49 333c
000000b0: 86af 4e3d 1730 83be 0742 12bf 0f1a 04be
000000c0: d9cc 31be f101 58be af78 023e 16c7 9e3b
000000d0: 31d6 563e ad76 86bc 3992 a23c bb8c 54bd
000000e0: c8ea 00be a555 8e3d 9ae0 893e 1067 6fbe
000000f0: 17cb bf3c 796b 2c3d 7668 27be 8a97 433e
00000100: 24a2 2ebe ed3b 543e e91a 67be 800f a43e
00000110: b6e6 173d 3605 a1bd baef 833e 8b23 e8bc
00000120: 3ab9 b43b a726 af3e dcb6 eb3d 8d4a c6bd
00000130: 4d75 9abd b2f2 403e d87a 8abd 72ad 28bb
00000140: 7ff9 86bb d221 4d3e 824d 82be 5eec 28be
00000150: 4bd9 23be a76f a43d e189 8c3e f5cc a5bd
00000160: 10c0 19be 7a78 653d da76 a53e 360a abbd
00000170: 80dd a2bd 63af 343e c5c8 15be ab54 433e
00000180: 792a 0b3e 84b5 d8bc fa5e 25be 5746 84be
00000190: 91d6 2d3e 4e74 bc3d 2967 07be aef0 933e
000001a0: 0e8d 50be e316 4bbc 614d fbbd e0a0 483e
000001b0: 60ff a9bc c314 b2be 1916 e83d 71d1 08bd
000001c0: 90bb 653d ee75 8d3e 3451 74bd bcf2 5bbe
000001d0: 4985 19bc 9f03 0f3f c291 01bc 7087 623e
000001e0: 1582 84be c3d4 f73d bae7 3fbe a3ab 4b3c
000001f0: a2b4 43be de8f f23d 0d55 12bd fee0 efbc
00000200: ec5c 56bc 0414 debd 7ad3 4d3d 70af 2cbc
00000210: f9d4 c23d 6cc9 94be f073 f23b 694a c0bd
00000220: 350e b83b 87df 44be bab6 1d3d de62 2ebe
00000230: 4f87 8d3e 160c 7c3e 7c8b 00be ddb6 63be
00000240: 972d b13d 4c33 953e 8606 613d 4075 c33d
00000250: dc27 ee3d b9f7 d63b 33b6 b33e c5fe f6bd
00000260: a225 95be e050 563b 30a0 013e 6bf5 44be
00000270: 9ca7 be3d fadf b1be 4650 78bd a70f be3d
00000280: 5319 50be 0fc7 2c3e 452c 873e 6d0b c4bc
00000290: 94de 003e dfce 003e b9f2 71be 6b5d 1c3d
000002a0: 1a30 923e c144 d53d 8c5c 99be c9fb 1b3d
000002b0: fae3 b63d 001f 6b3e 9b93 74bd 008f 83be
000002c0: ce4d 4f3e 7fb9 9fbe f751 263e 427e 713d
000002d0: 82cb a4bd d1e8 f7bd 10bb 083d 538e f9bd
000002e0: 5ac5 f8bd 0c48 2a3e 70cb d5be 3881 d7bd
000002f0: bebb 8a3d 097e 9fbd 13e9 f8bd 3ea3 cebc
00000300: 3fdd b4bd a9ad 05be dcaf 103e caa5 823e
00000310: 7406 f93d 028c bc3d 2784 383e 673e b3bd
00000320: 9fad bd3d e88a 9cbd ae9d 17be bf11 9bbc
00000330: 5400 1cbe eec7 783e 7718 2b3e 4dbc 44be
00000340: c6f2 09be 524f da3e 118d f4bd 569a 2cbe
00000350: e811 5a3e 8fc2 eb3d 7789 a03e d952 06be
00000360: b102 99be 402a 373d 6a6e 1fbe 9c24 5c3d
00000370: fabf 14bd e5a7 98be 18ca d1bd 76ef 003e
00000380: 0fa4 4b3e 8ff3 f03d 5022 f0bc 4b95 29be
00000390: b1a2 893c dd4a 88be d7a0 b23e 1340 323c
000003a0: 21aa 9d3e 4c6a 173e 2a97 6abe 3736 473e
000003b0: cdb7 3cbe fc82 c1bd 6eeb 1a3e ef63 c23b
000003c0: c28c 063d cefc a2be afbc c93d bf0a 5fbe
000003d0: 060e 003e b93b 81be 34d4 e2bd 3e3a e1be
000003e0: f48a 2a3e 34a5 3abe 0e73 523e 10cf d5bd
000003f0: 1325 ba3d 2156 f83c a692 23be 88c1 18be

context_transformer_0/ffn_layer_2/intermediate_dense/einsum/Einsum;context_transformer_0/ffn_layer_2/intermediate_dense/Relu;context_transformer_0/ffn_layer_2/intermediate_dense/add f4 [32]
-0.000922015 0.026491195 -0.16832507 -0.44022217 -0.085280105 -0.17399971 -0.047430694 -0.1458891
-0.17470211 -0.14303344 -0.25469115 -0.15917122 -0.09326818 -0.29658496 -0.29479918 -0.20040648
0.010069494 -0.27886957 0.058660317 -0.08455914 -0.066118896 -0.2129515 -0.11385417 -0.23560038
-0.24430665 -0.11589499 -0.08418498 -0.37076464 -0.089197844 -0.19605358 -0.2024735 -0.003919198
00000000: 61b3 71ba 1004 d93c 685d 2cbe cd64 e1be
00000010: 56a7 aebd fb2c 32be b046 42bd f463 15be
00000020: 1ce5 32be 5c77 12be e166 82be c8fd 22be
00000030: 6303 bfbd fcd9 97be ebef 96be 5b37 4dbe
00000040: 85fa 243c fec7 8ebe cd45 703d 582d adbd
00000050: 5869 87bd f50f 5abe 602c e9bd 3a41 71be
00000060: 862b 7abe 5a5a edbd 2d69 acbd ddd4 bdbe
00000070: 5cad b6bd 45c2 48be 3755 4fbe 9e6c 80bb

context_transformer_0/ffn_layer_1/norm/mul;context_transformer_0/ffn_layer_1/norm/add;context_transformer_0/ffn_layer_2/intermediate_dense/einsum/Einsum;context_transformer_0/ffn_layer_2/intermediate_dense/Relu;context_transformer_0/ffn_layer_2/intermediate_dense/add f4 [32, 32]
0.18043827 -0.18259853 0.17528217 -0.32513857 0.11933899 -0.14911006 0.20993486 -0.11725543
-0.045840956 0.09121438 -0.1726171 0.13014045 -0.3364823 0.059922323 -0.1761809 0.03747555
-0.20251752 0.0032163993 0.098391585 0.22912687 -0.17577016 0.012264626 0.36177355 0.2694502
-0.121891506 -0.010700706 -0.007609682 -0.24291664 0.013860694 0.107057996 0.22737455 0.12782547
0.05958817 -0.15690456 0.14006987 0.09741297 0.054826688 0.03587376 -0.030398391 0.10942354
0.06392923 -0.048215598 -0.431462 -0.035338867 0.18581454 0.13418391 0.054011934 -0.28456017
-0.14193508 -0.014096074 -0.11119771 0.026340792 0.03440315 -0.21625084 -0.091744035 -0.12101741
0.007244396 -0.25199792 -0.016830338 -0.009881046 -0.1772151 -0.025916543 -0.107282735 0.13016985
0.003667246 0.035252318 -0.29834116 0.04173198 -0.019952474 0.06059031 -0.14798962 -0.13802394
0.18056777 0.11291077 -0.23729795 0.007328086 -0.047375213 -0.36141714 0.07000471 -0.009196874
-0.05634283 0.10255922 0.02725222 0.14006424 0.21395437 -0.018099131 0.14115879 0.01098196
0.003501546 -0.18632525 0.06138497 0.32609424 -0.24289367 -0.06529372 0.26361305 -0.18460032
-0.005407876 -0.08815708 0.03130996 -0.14190485 0.03287578 -0.032332037 -0.10062189 0.20818573
-0.20157032 -0.023912996 -0.06822781 0.18536101 0.0006587117 -0.18109456 0.10563442 0.20035489
0.20522504 0.015056537 -0.12876096 -0.09492889 -0.08897066 0.17340992 0.094663136 0.15177947
-0.031505924 0.08536667 0.058791567 0.043492857 -0.2982939 -0.14967047 -0.09640023 0.31606016
-0.01709023 -0.15546773 0.04732795 -0.030291243 0.02951754 0.06322299 0.015572489 -0.01702628
0.15849124 0.15845995 0.07087941 0.13061889 0.0024182366 0.08239242 0.039467566 -0.162257
0.057493746 0.060725953 0.053279202 -0.21563274 0.0013330253 0.2308929 -0.14302221 -0.19212775
-0.16093574 0.023582336 -0.1340694 -0.014099371 0.014633242 -0.130713 -0.21433917 0.049895026
-0.034397468 0.051158268 -0.047974985 0.09931379 -0.073828354 -0.028457219 0.18351008 0.12042155
-0.15826438 0.20245332 0.2136443 -0.1151737 0.062498298 0.12420214 -0.27521527 0.115191504
0.14740941 0.17882651 0.04482851 0.3355763 -0.04377327 -0.11852936 0.04648886 0.1063886
0.34451964 0.16380574 -0.12936884 -0.059497133 -0.15849796 0.10042267 -0.24469286 0.30989137
-0.086409375 0.093312316 0.009851837 -0.16744387 -0.16176744 -0.079263404 -0.1396005 0.06318768
-0.13890548 0.31320256 0.013632157 0.23066458 0.2432428 0.25016293 -0.30209935 -0.020754691
0.003824927 -0.05270362 -0.19565292 -0.08205564 -0.036466055 -0.41851568 0.10061758 -0.042904682
-0.14085929 -0.30086827 -0.088094264 -0.00962935 -0.08859466 -0.06238157 -0.08149474 0.26068586
-0.10322348 -0.10039464 -0.24684623 -0.041641686 -0.06954166 0.091351695 -0.1364865 -0.14046815
-0.1547597 -0.053307906 0.15536037 0.0830245 0.0422937 -0.13802855 -0.046812918 -0.32387283
0.25442764 0.20359488 0.035656933 0.19568445 -0.08634365 -0.18420969 0.04011525 -0.02019639
0.053251773 -0.097310215 -0.20789663 -0.034718763 -0.15218446 0.21086441 0.16342425 -0.29472384
00000000: cfc4 383e 1cfb 3abe 2b7d 333e 9078 a6be
00000010: 0068 f43d 4fb0 18be 2af9 563e 9d23 f0bd
00000020: bac3 3bbd 9bce ba3d 89c2 30be 8a43 053e
00000030: 6847 acbe 1c71 753d c468 34be f67f 193d
00000040: c160 4fbe 3aca 523b 8781 c93d 3ca0 6a3e
00000050: 18fd 33be 92f1 483c 623a b93e 60f5 893e
00000060: 41a2 f9bd 0452 2fbc a45a f9bb 24bf 78be
00000070: f717 633c 3941 db3d e0d4 683e aee4 023e
00000080: ba12 743d 97ab 20be 7a6e 0f3e 7480 c73d
00000090: f391 603d 5df0 123d 0c06 f9bc 7319 e03d
000000a0: 54ed 823d b87d 45bd 96e8 dcbe 7dbf 10bd
000000b0: 2b46 3e3e 8267 093e 9e3b 5d3d dfb1 91be
000000c0: 6e57 11be 38f3 66bc a0bb e3bd a5c8 d73c
000000d0: 51ea 0c3d dc70 5dbe 4ce4 bbbd fad7 f7bd
000000e0: 6662 ed3b df05 81be c7df 89bc 1ce4 21bc
000000f0: e077 35be ee4e d4bc 0db7 dbbd 3f4b 053e
00000100: 2e56 703b bc64 103d 2cc0 98be 27ef 2a3d
00000110: 5f73 a3bc 8b2d 783d 978a 17be 2656 0dbe
00000120: c2e6 383e c33d e73d 3cfe 72be 7120 f03b
00000130: 830c 42bd ab0b b9be a15e 8f3d 7cae 16bc
00000140: bdc7 66bd 910a d23d 0c40 df3c 006d 0f3e
00000150: db16 5b3e a144 94bc ee8b 103e aeed 333c
00000160: 327a 653b 0ccc 3ebe ce6e 7b3d d3f5 a63e
00000170: 1eb9 78be b7b8 85bd 4af8 863e de07 3dbe
00000180: 8d34 b1bb b38b b4bd df3e 003d 814f 11be
00000190: c1a8 063d 996e 04bd d912 cebd a42e 553e
000001a0: 7368 4ebe 30e5 c3bc 06bb 8bbd 47cf 3d3e
000001b0: 65ad 2c3a da70 39be dc56 d83d d529 4d3e
000001c0: 8326 523e b2af 763c ead9 03be 146a c2bd
000001d0: 4036 b6bd 5f92 313e bfde c13d 146c 1b3e
000001e0: 5b0c 01bd b8d4 ae3d 6dcf 703d 9125 323d
000001f0: fab9 98be 3743 19be 7c6d c5bd a3d2 a13e
00000200: cf00 8cbc ef32 1fbe f4da 413d 5725 f8bc
00000210: c5ce f13c 0e7b 813d c123 7f3c b27a 8bbc
00000220: 874b 223e 5343 223e 3929 913d f5c0 053e
00000230: 477b 1e3b 5bbd a83d bea8 213d b326 26be
00000240: 907e 6b3d c7bb 783d 4b3b 5a3d d4ce 5cbe
00000250: e8b8 ae3a 306f 6c3e 6a74 12be 23bd 44be
00000260: 57cc 24be be2f c13c 7d49 09be 0c01 67bc
00000270: 44c0 6f3c a1d9 05be ba7b 5bbe ba5e 4c3d
00000280: 5ce4 0cbd 558b 513d 6b81 44bd 0765 cb3d
00000290: 5233 97bd 1d1f e9bc 11ea 3b3e 939f f63d
000002a0: 0f10 22be ec4f 4f3e 92c5 5a3e 30e0 ebbd
000002b0: 37fe 7f3d b15d fe3d 04e9 8cbe 86e9 eb3d
000002c0: 7ef2 163e 4c1e 373e 1a9e 373d a8d0 ab3e
000002d0: 9a4b 33bd 85bf f2bd 1a6b 3e3d 44e2 d93d
000002e0: e164 b03e b1bc 273e 4479 04be 44b3 73bd
000002f0: 4a4d 22be 67aa cd3d c490 7abe 15aa 9e3e
00000300: 66f7 b0bd 871a bf3d 9969 213c 6876 2bbe
00000310: 5da6 25be da54 a2bd 6ff3 0ebe 8b68 813d
00000320: 3d3d 0ebe 165c a03e 6959 5f3c 5633 6c3e
00000330: a414 793e 5b15 803e c4ac 9abe be05 aabc
00000340: a0ab 7a3b c0df 57bd 3d59 48be ca0c a8bd
00000350: 6e5d 15bd b047 d6be 9710 ce3d d2bc 2fbd
00000360: 6b3d 10be 680b 9abe c46a b4bd 6cc4 1dbc
00000370: 1e71 b5bd d183 7fbd b7e6 a6bd 9e78 853e
00000380: d566 d3bd b49b cdbd 42c5 7cbe 7990 2abd
00000390: dc6b 8ebd 9916 bb3d 1ec3 0bbe e2d6 0fbe
000003a0: 5479 1ebe 6459 5abd ca16 1f3e c008 aa3d
000003b0: 293c 2d3d 5b57 0dbe e7be 3fbd a9d2 a5be
000003c0: 5744 823e 2d7b 503e 010d 123d 8161 483e
000003d0: f1d4 b0bd 77a1 3cbe e34f 243d e672 a5bc
000003e0: 881e 5a3d 944a c7bd dbe2 54be 4335 0ebd
000003f0: 3ed6 1bbe d7ec 573e b058 273e 0be6 96be

context_transformer_0/ffn_layer_3/intermediate_dense/einsum/Einsum;context_transformer_0/ffn_layer_3/intermediate_dense/Relu;context_transformer_0/ffn_layer_3/intermediate_dense/add f4 [32]
-0.15370956 -0.53695196 -0.06267317 -0.124144055 -0.13720764 -0.18377101 -0.11462354 -0.21603845
-0.17952232 0.04333926 -0.18713574 0.038459532 -0.068967514 -0.13148737 -0.024614817 -0.20403995
-0.14300548 -0.101861544 -0.09082125 -0.05292195 -0.09479317 -0.22900559 -0.14539619 -0.1924694
-0.12709542 -0.086555265 -0.047183458 -0.08923993 -0.1035056 -0.315117 -0.14793633 -0.06530092
00000000: 0a66 1dbe af75 09bf ca5a 80bd 3d3f febd
00000010: 2980 0cbe 782e 3cbe bfbf eabd 2f39 5dbe
00000020: b3d4 37be 8284 313d 83a0 3fbe be87 1d3d
00000030: d73e 8dbd a0a4 06be 03a5 c9bc d9ef 50be
00000040: 0770 12be c99c d0bd 7e00 babd b0c4 58bd
00000050: ec22 c2bd 7180 6abe bde2 14be b316 45be
00000060: 4d25 02be e343 b1bd 7143 41bd 6dc3 b6bd
00000070: befa d3bd 0457 a1be 9f7c 17be 7dbc 85bd
